scenes/airsas/bunny_20k/example_outputs/deconvolved_measurements/numpy/weights_trans_40320_40679.npy (npy, 437888 bytes, 1 tensors)

array f2 [360, 608]
0	0x0039	3.4e-06
1	0x0107	1.57e-05
2	0x012c	1.79e-05
3	0x0073	6.85e-06
4	0x0001	6e-08
5	0x009c	9.3e-06
6	0x0166	2.134e-05
7	0x002c	2.6e-06
8	0x0141	1.913e-05
9	0x002a	2.5e-06
10	0x0075	7e-06
11	0x006c	6.44e-06
12	0x0065	6e-06
13	0x0214	3.17e-05
14	0x0058	5.25e-06
15	0x8042	-3.93e-06
16	0x0051	4.8e-06
17	0x0107	1.57e-05
18	0x0167	2.14e-05
19	0x006a	6.3e-06
20	0x80af	-1.043e-05
21	0x0086	8e-06
22	0x007c	7.4e-06
23	0x0047	4.23e-06
24	0x80d9	-1.293e-05
25	0x002c	2.6e-06
26	0x0029	2.44e-06
27	0x00c6	1.18e-05
28	0x8013	-1.13e-06
29	0x8076	-7.03e-06
30	0x0047	4.23e-06
31	0x015a	2.06e-05
32	0x002d	2.7e-06
33	0x8041	-3.9e-06
34	0x006a	6.3e-06
35	0x00da	1.3e-05
36	0x015d	2.08e-05
37	0x80b9	-1.1e-05
38	0x00c8	1.19e-05
39	0x0039	3.4e-06
40	0x0073	6.85e-06
41	0x0051	4.8e-06
42	0x8011	-1e-06
43	0x0073	6.85e-06
44	0x80b1	-1.055e-05
45	0x00bf	1.14e-05
46	0x8026	-2.26e-06
47	0x804d	-4.6e-06
48	0x00a9	1.01e-05
49	0x8018	-1.43e-06
50	0x0047	4.23e-06
51	0x0007	4e-07
52	0x003c	3.6e-06
53	0x0055	5.07e-06
54	0x0008	5e-07
55	0x00a3	9.7e-06
56	0x0046	4.2e-06
57	0x8038	-3.34e-06
58	0x00e8	1.38e-05
59	0x0009	5.4e-07
60	0x0062	5.84e-06
61	0x8048	-4.3e-06
62	0x0073	6.85e-06
63	0x8083	-7.8e-06
64	0x0011	1e-06
65	0x004d	4.6e-06
66	0x8047	-4.23e-06
67	0x8070	-6.7e-06
68	0x0124	1.74e-05
69	0x8084	-7.87e-06
70	0x0057	5.2e-06
71	0x000a	6e-07
72	0x8029	-2.44e-06
73	0x0091	8.64e-06
74	0x807b	-7.33e-06
75	0x004c	4.53e-06
76	0x001a	1.55e-06
77	0x0018	1.43e-06
78	0x008e	8.46e-06
79	0x0037	3.3e-06
80	0x006d	6.5e-06
81	0x801f	-1.85e-06
82	0x0061	5.8e-06
83	0x0006	3.6e-07
84	0x805d	-5.54e-06
85	0x001a	1.55e-06
86	0x8027	-2.3e-06
87	0x801c	-1.67e-06
88	0x0005	3e-07
89	0x802a	-2.5e-06
90	0x8015	-1.25e-06
91	0x000c	7e-07
92	0x8044	-4.05e-06
93	0x0057	5.2e-06
94	0x8087	-8.05e-06
95	0x0055	5.07e-06
96	0x0037	3.3e-06
97	0x006d	6.5e-06
98	0x001d	1.7e-06
99	0x0059	5.3e-06
100	0x8017	-1.4e-06
101	0x00a7	9.95e-06
102	0x002d	2.7e-06
103	0x00b2	1.06e-05
104	0x002c	2.6e-06
105	0x003e	3.7e-06
106	0x802b	-2.56e-06
107	0x8014	-1.2e-06
108	0x0024	2.15e-06
109	0x8001	-6e-08
110	0x0076	7.03e-06
111	0x0015	1.25e-06
112	0x0081	7.7e-06
113	0x000b	6.6e-07
114	0x8012	-1.1e-06
115	0x0018	1.43e-06
116	0x801d	-1.7e-06
117	0x0061	5.8e-06
118	0x0063	5.9e-06
119	0x800a	-6e-07
120	0x0069	6.26e-06
121	0x8040	-3.8e-06
122	0x0047	4.23e-06
123	0x006a	6.3e-06
124	0x007f	7.57e-06
125	0x007d	7.45e-06
126	0x0074	6.9e-06
127	0x800b	-6.6e-07
128	0x804f	-4.7e-06
129	0x002d	2.7e-06
130	0x006a	6.3e-06
131	0x0013	1.13e-06
132	0x00d8	1.29e-05
133	0x806a	-6.3e-06
134	0x0010	9.5e-07
135	0x8094	-8.8e-06
136	0x8018	-1.43e-06
137	0x800b	-6.6e-07
138	0x80b9	-1.1e-05
139	0x8004	-2.4e-07
140	0x80ac	-1.025e-05
141	0x803c	-3.6e-06
142	0x003c	3.6e-06
143	0x002d	2.7e-06
144	0x8032	-3e-06
145	0x0008	5e-07
146	0x808d	-8.4e-06
147	0x0073	6.85e-06
148	0x0056	5.1e-06
149	0x0096	8.94e-06
150	0x0008	5e-07
151	0x001e	1.8e-06
152	0x0066	6.1e-06
153	0x0061	5.8e-06
154	0x01db	2.83e-05
155	0x006a	6.3e-06
156	0x012a	1.776e-05
157	0x8090	-8.6e-06
158	0x0020	1.9e-06
159	0x8016	-1.3e-06
160	0x8032	-3e-06
161	0x8043	-4e-06
162	0x002d	2.7e-06
163	0x006a	6.3e-06
164	0x00bb	1.115e-05
165	0x00ce	1.23e-05
166	0x801f	-1.85e-06
167	0x80df	-1.33e-05
168	0x810c	-1.6e-05
169	0x810e	-1.61e-05
170	0x0057	5.2e-06
171	0x00b3	1.067e-05
172	0x0196	2.42e-05
173	0x00ae	1.04e-05
174	0x004f	4.7e-06
175	0x8260	-3.624e-05
176	0x828c	-3.886e-05
177	0x83e4	-5.937e-05
178	0x80bc	-1.12e-05
179	0x02f7	4.524e-05
180	0x050a	7.69e-05
181	0x06ce	0.00010383
182	0x009d	9.36e-06
183	0x8383	-5.36e-05
184	0x883f	-0.0001296
185	0x88b8	-0.000144
186	0x83d4	-5.84e-05
187	0x008f	8.5e-06
188	0x04df	7.43e-05
189	0x013a	1.87e-05
190	0x85a0	-8.583e-05
191	0x8ab5	-0.0002047
192	0x8a1e	-0.0001867
193	0x86fa	-0.00010645
194	0x0534	7.94e-05
195	0x06fd	0.00010663
196	0x0519	7.78e-05
197	0x87a6	-0.0001167
198	0x8a62	-0.0001948
199	0x883f	-0.0001296
200	0x041d	6.276e-05
201	0x0be4	0.0002408
202	0x0b5d	0.0002247
203	0x00e6	1.37e-05
204	0x8658	-9.68e-05
205	0x8a6f	-0.0001963
206	0x0033	3.04e-06
207	0x0534	7.94e-05
208	0x05ac	8.655e-05
209	0x0058	5.25e-06
210	0x87bd	-0.0001181
211	0x801c	-1.67e-06
212	0x02df	4.38e-05
213	0x0759	0.0001121
214	0x8047	-4.23e-06
215	0x85ca	-8.833e-05
216	0x8318	-4.72e-05
217	0x02ad	4.08e-05
218	0x04b0	7.15e-05
219	0x800a	-6e-07
220	0x89ab	-0.000173
221	0x88e1	-0.0001489
222	0x815a	-2.06e-05
223	0x0451	6.586e-05
224	0x05e6	9e-05
225	0x8022	-2e-06
226	0x81c5	-2.7e-05
227	0x010a	1.585e-05
228	0x021c	3.22e-05
229	0x004c	4.53e-06
230	0x8325	-4.8e-05
231	0x86bd	-0.0001028
232	0x81af	-2.57e-05
233	0x007a	7.3e-06
234	0x02f1	4.49e-05
235	0x0033	3.04e-06
236	0x84f8	-7.58e-05
237	0x81af	-2.57e-05
238	0x0086	8e-06
239	0x0829	0.000127
240	0x00e5	1.365e-05
241	0x803a	-3.46e-06
242	0x85f3	-9.08e-05
243	0x0016	1.3e-06
244	0x0061	5.8e-06
245	0x0146	1.943e-05
246	0x81fb	-3.02e-05
247	0x800a	-6e-07
248	0x0136	1.85e-05
249	0x00ab	1.02e-05
250	0x0016	1.3e-06
251	0x80db	-1.305e-05
252	0x008f	8.5e-06
253	0x003b	3.5e-06
254	0x8033	-3.04e-06
255	0x8daf	-0.000347
