scenes/airsas/bunny_20k/example_outputs/deconvolved_measurements/numpy/weights_trans_15120_15479.npy (npy, 437888 bytes, 1 tensors)

array f2 [360, 608]
000000 93 21 a1 80 66 8c 2d a9 3f a3 d9 85 37 25 6f 28
       0.01089 -9.6e-06 -0.0002685 -0.04044 -0.01415 -8.92e-05 0.02037 0.03464
000010 14 8b 94 81 e6 81 b4 81 c2 82 2c 82 ba 80 99 80
       -0.000216 -2.41e-05 -2.897e-05 -2.6e-05 -4.21e-05 -3.314e-05 -1.11e-05 -9.1e-06
000020 dc 80 25 86 1c 18 fb 83 18 82 82 a1 35 a1 c9 85
       -1.31e-05 -9.376e-05 0.002007 -6.074e-05 -3.195e-05 -0.01076 -0.01017 -8.83e-05
000030 15 28 76 28 9b 84 89 86 35 84 63 83 28 81 71 07
       0.0319 0.03485 -7.03e-05 -9.97e-05 -6.42e-05 -5.17e-05 -1.764e-05 0.00011355
000040 8e 01 08 81 d4 82 99 84 35 81 a7 81 62 1d 18 03
       2.37e-05 -1.574e-05 -4.315e-05 -7.015e-05 -1.84e-05 -2.52e-05 0.005257 4.72e-05
000050 c8 82 3c 9a 12 a3 86 89 af 06 1d 81 7b 84 de 83
       -4.244e-05 -0.003044 -0.01381 -0.0001686 0.000102 -1.7e-05 -6.837e-05 -5.9e-05
000060 9b 81 c2 80 9d 00 ca 05 a3 01 ab 00 8e 81 e1 83
       -2.45e-05 -1.156e-05 9.36e-06 8.833e-05 2.5e-05 1.02e-05 -2.37e-05 -5.92e-05
000070 25 82 e5 80 fe 80 0e 80 70 81 06 81 d1 81 10 83
       -3.27e-05 -1.365e-05 -1.514e-05 -8.3e-07 -2.193e-05 -1.56e-05 -2.77e-05 -4.673e-05
000080 2c 80 a9 81 63 00 b7 02 d5 81 d6 80 2d 81 64 80
       -2.6e-06 -2.533e-05 5.9e-06 4.14e-05 -2.795e-05 -1.276e-05 -1.794e-05 -5.96e-06
000090 df 80 12 85 44 80 64 81 e3 00 91 81 a4 80 cf 00
       -1.33e-05 -7.737e-05 -4.05e-06 -2.12e-05 1.353e-05 -2.39e-05 -9.8e-06 1.234e-05
0000a0 9a 02 a7 00 a4 82 5a 83 72 82 3a 81 4e 81 57 00
       3.97e-05 9.95e-06 -4.03e-05 -5.114e-05 -3.73e-05 -1.87e-05 -1.99e-05 5.2e-06
0000b0 fc 00 9b 81 43 82 d5 80 92 01 17 80 f9 81 33 80
       1.5e-05 -2.45e-05 -3.45e-05 -1.27e-05 2.396e-05 -1.4e-06 -3.01e-05 -3.04e-06
0000c0 35 01 58 00 c1 85 94 88 d9 82 97 00 fb 00 3a 80
       1.84e-05 5.25e-06 -8.78e-05 -0.0001397 -4.345e-05 9e-06 1.496e-05 -3.46e-06
0000d0 5b 04 37 80 e0 81 f9 81 6d 81 1c 00 ec 01 32 01
       6.646e-05 -3.3e-06 -2.86e-05 -3.01e-05 -2.176e-05 1.67e-06 2.93e-05 1.824e-05
0000e0 7c 82 a5 82 48 81 15 02 b3 80 f7 80 28 80 ce 80
       -3.79e-05 -4.035e-05 -1.955e-05 3.177e-05 -1.067e-05 -1.47e-05 -2.4e-06 -1.23e-05
0000f0 d6 81 74 81 90 80 87 80 c8 82 86 00 3b 03 8c 01
       -2.8e-05 -2.22e-05 -8.6e-06 -8.05e-06 -4.244e-05 8e-06 4.93e-05 2.36e-05
000100 a2 80 ae 84 d3 82 22 82 68 01 3c 00 81 02 1b 81
       -9.66e-06 -7.14e-05 -4.31e-05 -3.254e-05 2.146e-05 3.6e-06 3.82e-05 -1.687e-05
000110 d2 82 11 80 bb 00 04 80 27 01 98 01 03 81 5a 82
       -4.303e-05 -1e-06 1.115e-05 -2.4e-07 1.76e-05 2.43e-05 -1.544e-05 -3.59e-05
000120 c9 82 b8 80 7c 81 c6 80 3c 01 7a 00 2c 80 9c 82
       -4.25e-05 -1.097e-05 -2.265e-05 -1.18e-05 1.884e-05 7.3e-06 -2.6e-06 -3.98e-05
000130 2d 88 cd 81 90 00 40 08 11 04 66 00 58 81 18 81
       -0.0001274 -2.75e-05 8.6e-06 0.0001297 6.205e-05 6.1e-06 -2.05e-05 -1.67e-05
000140 22 00 95 80 a7 80 5a 00 c3 80 43 81 be 80 81 80
       2e-06 -8.9e-06 -9.95e-06 5.36e-06 -1.16e-05 -1.925e-05 -1.13e-05 -7.7e-06
000150 3d 82 29 80 8a 07 6a 80 94 00 b1 a2 cb 9c 9d 0b
       -3.415e-05 -2.44e-06 0.00011504 -6.3e-06 8.8e-06 -0.01307 -0.00468 0.0002323
000160 5e 0e 46 31 9e 2b 2b 88 70 9c 0b b1 20 98 71 8a
       0.0003886 0.1648 0.0595 -0.0001272 -0.004333 -0.1576 -0.002014 -0.0001966
000170 d3 2e 13 33 82 0c f5 82 64 a6 8c a8 86 8c 92 00
       0.1066 0.2211 0.0002751 -4.51e-05 -0.02496 -0.03552 -0.000276 8.7e-06
000180 3f 26 8f 06 86 88 e4 ad 8b a8 12 85 0e 20 d4 2d
       0.0244 0.0001001 -0.000138 -0.09204 -0.0355 -7.737e-05 0.00792 0.09106
000190 0c 07 df 87 ef 99 bb 88 dc 00 d6 81 6b 88 cb 8a
       0.0001075 -0.0001201 -0.002897 -0.0001444 1.31e-05 -2.8e-05 -0.0001348 -0.0002073
0001a0 08 80 10 2c c4 21 71 03 f9 88 da 8d 1a a8 ad a8
       -5e-07 0.0635 0.01126 5.25e-05 -0.0001518 -0.0003572 -0.03204 -0.03653
0001b0 a1 81 b7 0a 7f 83 0d 8e 0e 88 94 91 f5 89 4d 1d
       -2.486e-05 0.0002049 -5.335e-05 -0.0003693 -0.0001237 -0.000681 -0.0001818 0.005177
0001c0 06 2a c4 8c 00 af 0e af 1e b2 dc 93 70 0c 0b 29
       0.04706 -0.0002909 -0.1094 -0.1102 -0.1912 -0.0009594 0.0002708 0.0394
0001d0 a9 32 d7 16 a0 8e eb a9 20 b0 05 97 3c 97 73 24
       0.2081 0.00167 -0.0004044 -0.04623 -0.1289 -0.001714 -0.001766 0.01738
0001e0 40 08 6e 8d df ab 4c a6 e2 84 bf 00 b8 02 87 81
       0.0001297 -0.0003314 -0.0615 -0.0246 -7.45e-05 1.14e-05 4.15e-05 -2.33e-05
0001f0 e2 00 2c 01 b5 80 9b 83 66 a9 15 9c e2 81 93 00
       1.35e-05 1.79e-05 -1.08e-05 -5.5e-05 -0.04218 -0.003986 -2.87e-05 8.76e-06
