scenes/airsas/bunny_20k/example_outputs/deconvolved_measurements/numpy/weights_trans_1080_1439.npy (npy, 437888 bytes, 1 tensors)

array f2 [360, 608]
-7.6e-06 -6.14e-06 -7.8e-06 -1.06e-05 -1e-06 -1.14e-05 -4.77e-06 9.5e-07
-5e-06 5.2e-06 2.4e-07 5.4e-06 5.2e-06 3e-06 -6.6e-07 2.5e-06
2.74e-06 6.7e-06 -9.5e-07 1.01e-05 -3.6e-06 9.5e-06 -4.23e-06 6.14e-06
1.55e-06 -7e-06 1.67e-06 -5.4e-06 -2.2e-06 5.4e-07 -1.8e-06 -2.4e-07
-3e-07 -3.64e-06 1.2e-06 -6.1e-06 2.3e-06 -2.9e-06 -2.15e-06 -1.7e-06
3.9e-06 4.95e-06 2.2e-06 1.365e-05 1.13e-06 1.94e-05 1.9e-06 1.067e-05
7e-06 1.7e-06 8.3e-06 -1.25e-06 7.8e-06 1.097e-05 4e-06 6.1e-06
5.84e-06 -3.93e-06 1.25e-06 -8.34e-06 1e-06 3.6e-07 2.9e-06 6.14e-06
6.74e-06 -2.8e-06 8.1e-06 1.22e-05 2.4e-06 1.21e-05 1.13e-06 -5.8e-06
3.93e-06 -3.6e-07 4.4e-06 1.42e-05 1.4e-06 1.22e-05 2.7e-06 5.4e-07
6.7e-06 -5.54e-06 3e-06 -2e-07 -5e-07 -1.323e-05 2.6e-06 -1.57e-05
-1.43e-06 -6.7e-06 -6.14e-06 4.05e-06 -5.8e-06 -2.4e-06 -4.65e-06 -5.8e-06
-4.05e-06 -1.067e-05 6.74e-06 -6e-06 1.2e-06 -2.86e-06 -4e-06 -6.44e-06
-1.63e-05 -4.4e-06 -1.943e-05 -7.45e-06 -8.17e-06 -1.98e-05 -8.6e-06 -7.75e-06
-1.9e-06 -8.17e-06 -2.9e-06 -1.293e-05 2.1e-06 -5.25e-06 -1.925e-05 -1.35e-05
-7.87e-06 -1.13e-05 7.6e-06 -5.36e-06 -1.21e-05 -1.46e-05 -3.1e-06 3.3e-06
1.025e-05 8.3e-07 1.08e-05 -4.23e-06 6.1e-06 -1.85e-06 -8.6e-06 -8.64e-06
-1.07e-05 4.4e-06 -1e-05 3.9e-06 1.234e-05 1.067e-05 1.05e-05 4.4e-06
-6e-08 1.514e-05 -4.4e-06 1.5e-06 1.43e-06 -1.3e-06 -8.2e-06 -4e-07
-9.36e-06 -5.66e-06 -9e-07 1.76e-05 -4.65e-06 -1.574e-05 -0.01073 -0.0698
3.82e-05 9.63e-05 4.7e-06 0.0848 0.0678 -0.002153 -0.12 -0.1969
-0.00242 0.0001843 0.001336 0.003477 0.1372 0.001223 -0.0006037 -0.0686
-0.011505 -0.00135 0.0394 0.001079 -0.0006924 -0.02922 -0.00010675 0.01202
-0.0002341 -0.0006022 0.0005217 0.0651 -0.000829 -0.06573 9.95e-06 0.05637
0.0165 0.0002558 -0.3806 -0.1637 -0.001165 0.001199 -0.0001465 0.01407
0.008484 -0.002111 -0.01343 -0.0010395 0.1346 -0.0004606 -0.011505 -0.02728
-3.886e-05 -7.117e-05 -1.67e-06 2.07e-05 0.003445 0.0002658 -2.605e-05 -2.587e-05
-0.02199 -0.010506 -2.95e-05 2.7e-05 0.0002085 -3.994e-05 -2.11e-05 -0.03577
8.34e-06 4.32e-05 -6.44e-06 7.4e-06 -5.22e-05 3.64e-06 3.6e-06 -1.067e-05
-6.51e-05 -0.02611 -5.305e-05 7.4e-06 1.69e-05 -1.97e-06 -5.25e-06 -1.764e-05
0.0002327 -1.45e-05 -0.004738 -0.02477 -0.0002301 -7.75e-06 1.264e-05 0.0002067
8.9e-06 -5.5e-06 -6.115e-05 -9.5e-06 -1.276e-05 -4.7e-06 5.36e-06 9.14e-05
00000000: 8080 6780 8380 b280 1180 bf80 5080 1000
00000010: 5480 5700 0400 5b00 5700 3200 0b80 2a00
00000020: 2e00 7000 1080 a900 3c80 9f00 4780 6700
00000030: 1a00 7580 1c00 5b80 2580 0900 1e80 0480
00000040: 0580 3d80 1400 6680 2700 3180 2480 1d80
00000050: 4100 5300 2500 e500 1300 4501 2000 b300
00000060: 7500 1d00 8b00 1580 8300 b800 4300 6600
00000070: 6200 4280 1500 8c80 1100 0600 3100 6700
00000080: 7100 2f80 8800 cd00 2800 cb00 1300 6180
00000090: 4200 0680 4a00 ee00 1700 cd00 2d00 0900
000000a0: 7000 5d80 3200 0380 0880 de80 2c00 0781
000000b0: 1880 7080 6780 4400 6180 2880 4e80 6180
000000c0: 4480 b380 7100 6580 1400 3080 4380 6c80
000000d0: 1181 4a80 4681 7d80 8980 4c81 9080 8280
000000e0: 2080 8980 3180 d980 2300 5880 4381 e280
000000f0: 8480 be80 8000 5a80 cb80 f580 3480 3700
00000100: ac00 0e00 b500 4780 6600 1f80 9080 9180
00000110: b480 4a00 a880 4100 cf00 b300 b000 4a00
00000120: 0180 fe00 4a80 1900 1800 1680 8a80 0780
00000130: 9d80 5f80 0f80 2701 4e80 0881 7ea1 78ac
00000140: 8102 5006 4f00 6d2d 572c 6998 aeaf 4db2
00000150: f598 0a0a 7915 1f1b 6430 0215 f290 64ac
00000160: e4a1 8895 0b29 6b14 ac91 7ba7 ff86 2722
00000170: ac8b ef90 4610 2b2c cb92 35ac a700 372b
00000180: 3924 310c 17b6 3db1 c694 e914 cd88 3423
00000190: 5820 5398 e0a2 4294 4f30 8c8f e4a1 fca6
000001a0: 8c82 aa84 1c80 5b01 0e1b 5b0c b581 b281
000001b0: a1a5 61a1 ef81 c501 d50a 9e82 6281 94a8
000001c0: 8c00 d502 6c80 7c00 6c83 3d00 3c00 b380
000001d0: 4484 afa6 7a83 7c00 1c01 2180 5880 2881
000001e0: a00b f380 da9c 57a6 8a8b 8280 d400 c60a
000001f0: 9500 5c80 0284 9f80 d680 4f80 5a00 fd05
