scenes/airsas/bunny_20k/example_outputs/deconvolved_measurements/numpy/weights_trans_42120_42479.npy (npy, 437888 bytes, 1 tensors)

array f2 [360, 608]
00000000: 1200 1500 ec01 fb00 eb00 bb00 a700 1101
00000010: 1f01 4201 0701 9700 7701 6b01 ca00 1a00
00000020: 3401 eb00 d600 5700 1501 d500 a100 a000
00000030: 6900 8800 6f00 8100 6200 0500 3a00 de00
00000040: 0180 1a80 5b00 a500 3f00 0b00 bc00 2680
00000050: 2f00 7901 9a80 4800 5801 4900 0d00 4a00
00000060: 2401 5d80 4e00 5d00 6800 2d80 5800 1100
00000070: 0b80 c880 3500 9e80 8780 3880 7180 2580
00000080: 4980 0380 2300 2600 1600 6f00 7580 3600
00000090: 5180 2780 2e80 8380 5180 4280 5080 1200
000000a0: 1680 0400 0c00 1280 4300 4480 4200 4880
000000b0: 2880 8480 2280 6a80 8380 0c00 9280 2700
000000c0: 1600 0b80 0500 4580 7580 3c80 9280 1580
000000d0: 4280 2380 6080 8280 3d80 8c80 0d80 7980
000000e0: 0880 7b80 4400 7080 2900 2a80 0200 5000
000000f0: 4480 1080 a280 2280 6480 0900 2280 0f80
00000100: 2d80 6980 4280 6680 1600 2a80 2a00 6180
00000110: 4780 4580 1500 0880 7400 6480 0780 3880
00000120: 1c00 0000 0c80 9880 c480 2a80 3180 0100
00000130: 0f80 0781 a980 9680 2800 1200 2280 7f80
00000140: 3580 2c00 3a00 0300 7980 5881 2e80 2981
00000150: bd00 cc80 4301 1800 2602 2200 4d80 7e82
00000160: e682 f981 0881 2a01 d301 e102 8f00 af81
00000170: 9785 df87 0f85 5e80 7b06 9307 c306 9380
00000180: 4c84 7688 1f85 a100 4d07 9708 7a00 3483
00000190: 5d8b 7982 4a82 6e0a bf03 1500 3188 d789
000001a0: f307 8105 030d 9c81 b284 e388 9280 1b09
000001b0: b906 6a80 0f86 a400 5308 e709 da01 e387
000001c0: b282 1401 a50b fb01 5b80 c187 6a00 ac02
000001d0: 7a81 ce88 8685 c402 d404 0780 ee89 3682
000001e0: 6105 940a dd03 9983 b582 2a80 cb02 2a00
000001f0: 9a01 0a00 aa80 3581 7e02 7400 4280 ac88
1.1e-06 1.25e-06 2.93e-05 1.496e-05 1.4e-05 1.115e-05 9.95e-06 1.63e-05
1.71e-05 1.92e-05 1.57e-05 9e-06 2.235e-05 2.164e-05 1.204e-05 1.55e-06
1.836e-05 1.4e-05 1.276e-05 5.2e-06 1.65e-05 1.27e-05 9.6e-06 9.54e-06
6.26e-06 8.1e-06 6.6e-06 7.7e-06 5.84e-06 3e-07 3.46e-06 1.323e-05
-6e-08 -1.55e-06 5.4e-06 9.83e-06 3.76e-06 6.6e-07 1.12e-05 -2.26e-06
2.8e-06 2.25e-05 -9.2e-06 4.3e-06 2.05e-05 4.35e-06 8e-07 4.4e-06
1.74e-05 -5.54e-06 4.65e-06 5.54e-06 6.2e-06 -2.7e-06 5.25e-06 1e-06
-6.6e-07 -1.19e-05 3.16e-06 -9.4e-06 -8.05e-06 -3.34e-06 -6.74e-06 -2.2e-06
-4.35e-06 -2e-07 2.1e-06 2.26e-06 1.3e-06 6.6e-06 -7e-06 3.2e-06
-4.8e-06 -2.3e-06 -2.74e-06 -7.8e-06 -4.8e-06 -3.93e-06 -4.77e-06 1.1e-06
-1.3e-06 2.4e-07 7e-07 -1.1e-06 4e-06 -4.05e-06 3.93e-06 -4.3e-06
-2.4e-06 -7.87e-06 -2e-06 -6.3e-06 -7.8e-06 7e-07 -8.7e-06 2.3e-06
1.3e-06 -6.6e-07 3e-07 -4.1e-06 -7e-06 -3.6e-06 -8.7e-06 -1.25e-06
-3.93e-06 -2.1e-06 -5.7e-06 -7.75e-06 -3.64e-06 -8.34e-06 -8e-07 -7.2e-06
-5e-07 -7.33e-06 4.05e-06 -6.7e-06 2.44e-06 -2.5e-06 1e-07 4.77e-06
-4.05e-06 -9.5e-07 -9.66e-06 -2e-06 -5.96e-06 5.4e-07 -2e-06 -9e-07
-2.7e-06 -6.26e-06 -3.93e-06 -6.1e-06 1.3e-06 -2.5e-06 2.5e-06 -5.8e-06
-4.23e-06 -4.1e-06 1.25e-06 -5e-07 6.9e-06 -5.96e-06 -4e-07 -3.34e-06
1.67e-06 0.0 -7e-07 -9.06e-06 -1.17e-05 -2.5e-06 -2.9e-06 6e-08
-9e-07 -1.57e-05 -1.01e-05 -8.94e-06 2.4e-06 1.1e-06 -2e-06 -7.57e-06
-3.16e-06 2.6e-06 3.46e-06 2e-07 -7.2e-06 -2.05e-05 -2.74e-06 -1.77e-05
1.127e-05 -1.216e-05 1.925e-05 1.43e-06 3.28e-05 2e-06 -4.6e-06 -3.8e-05
-4.42e-05 -3.01e-05 -1.574e-05 1.776e-05 2.784e-05 4.39e-05 8.5e-06 -2.57e-05
-8.53e-05 -0.0001201 -7.72e-05 -5.6e-06 9.89e-05 0.0001156 0.0001032 -8.76e-06
-6.557e-05 -0.0001361 -7.814e-05 9.6e-06 0.0001114 0.0001401 7.3e-06 -4.89e-05
-0.0002247 -3.77e-05 -3.49e-05 0.0001962 5.716e-05 1.25e-06 -0.0001279 -0.0001782
0.0001213 8.4e-05 0.000306 -2.456e-05 -7.164e-05 -0.0001491 -8.7e-06 0.0001558
0.0001026 -6.3e-06 -9.245e-05 9.8e-06 0.000132 0.0001801 2.825e-05 -0.00012034
-4.11e-05 1.645e-05 0.0002333 3.02e-05 -5.4e-06 -0.0001183 6.3e-06 4.077e-05
-2.253e-05 -0.0001466 -8.43e-05 4.22e-05 7.37e-05 -4e-07 -0.000181 -3.374e-05
8.21e-05 0.0002007 5.895e-05 -5.49e-05 -4.13e-05 -2.5e-06 4.26e-05 2.5e-06
2.444e-05 6e-07 -1.013e-05 -1.84e-05 3.8e-05 6.9e-06 -3.93e-06 -0.0001426
