scenes/airsas/bunny_20k/example_outputs/deconvolved_measurements/numpy/weights_trans_53640_53999.npy (npy, 437888 bytes, 1 tensors)

array f2 [360, 608]
000000 dc 83 6a 81 56 80 80 80 d1 81 eb 01 4b 05 b8 00
       -5.89e-05 -2.16e-05 -5.1e-06 -7.6e-06 -2.77e-05 2.927e-05 8.076e-05 1.097e-05
000010 05 81 38 80 84 80 1e 84 0e 81 2d 00 c9 81 b8 80
       -1.556e-05 -3.34e-06 -7.87e-06 -6.28e-05 -1.61e-05 2.7e-06 -2.724e-05 -1.097e-05
000020 b2 02 1d 02 28 80 17 01 cb 80 c6 80 56 80 91 80
       4.11e-05 3.225e-05 -2.4e-06 1.66e-05 -1.21e-05 -1.18e-05 -5.1e-06 -8.64e-06
000030 f0 82 18 82 39 80 92 01 06 02 14 80 5c 00 8d 00
       -4.48e-05 -3.195e-05 -3.4e-06 2.396e-05 3.09e-05 -1.2e-06 5.5e-06 8.4e-06
000040 92 81 6b 83 51 00 48 81 0a 80 97 04 bd 01 40 80
       -2.396e-05 -5.215e-05 4.8e-06 -1.955e-05 -6e-07 7.004e-05 2.65e-05 -3.8e-06
000050 3a 01 fc 81 bc 83 89 83 cc 82 2a 80 39 03 64 00
       1.87e-05 -3.03e-05 -5.7e-05 -5.394e-05 -4.27e-05 -2.5e-06 4.92e-05 5.96e-06
000060 ab 01 67 00 00 01 5d 80 22 81 bf 80 2c 00 14 00
       2.545e-05 6.14e-06 1.526e-05 -5.54e-06 -1.73e-05 -1.14e-05 2.6e-06 1.2e-06
000070 a7 80 2a 00 4c 00 9e 82 5e 84 e1 80 e1 00 24 83
       -9.95e-06 2.5e-06 4.53e-06 -3.994e-05 -6.664e-05 -1.34e-05 1.34e-05 -4.79e-05
000080 d9 80 c8 03 e4 80 d4 81 26 80 b0 83 90 81 57 81
       -1.293e-05 5.77e-05 -1.36e-05 -2.79e-05 -2.26e-06 -5.627e-05 -2.384e-05 -2.044e-05
000090 a7 01 5c 80 b4 80 1f 07 b3 80 6d 80 c5 81 35 80
       2.52e-05 -5.5e-06 -1.07e-05 0.00010866 -1.067e-05 -6.5e-06 -2.7e-05 -3.16e-06
0000a0 1e 00 89 01 6a 01 58 00 06 00 1d 83 af 82 d5 00
       1.8e-06 2.34e-05 2.16e-05 5.25e-06 3.6e-07 -4.75e-05 -4.095e-05 1.27e-05
0000b0 4b 01 c8 01 d2 00 cc 01 a0 01 b3 80 1a 83 e4 80
       1.97e-05 2.72e-05 1.25e-05 2.74e-05 2.48e-05 -1.067e-05 -4.73e-05 -1.36e-05
0000c0 d0 80 96 81 b0 00 42 06 74 00 ca 02 0c 06 6a 80
       -1.24e-05 -2.42e-05 1.05e-05 9.55e-05 6.9e-06 4.256e-05 9.227e-05 -6.3e-06
0000d0 c7 81 1e 00 2d 01 68 02 24 02 c2 02 4a 82 4d 80
       -2.71e-05 1.8e-06 1.794e-05 3.67e-05 3.266e-05 4.21e-05 -3.49e-05 -4.6e-06
0000e0 cb 01 76 81 58 82 1c 80 41 00 d4 01 63 01 d9 00
       2.736e-05 -2.23e-05 -3.576e-05 -1.67e-06 3.9e-06 2.79e-05 2.116e-05 1.293e-05
0000f0 1c 82 94 80 8c 82 2a 81 dd 00 0f 80 1c 02 23 00
       -3.22e-05 -8.8e-06 -3.886e-05 -1.776e-05 1.32e-05 -9e-07 3.22e-05 2.1e-06
000100 96 80 aa 80 13 83 eb 81 22 80 04 04 39 04 5d 80
       -8.94e-06 -1.013e-05 -4.69e-05 -2.927e-05 -2e-06 6.13e-05 6.443e-05 -5.54e-06
000110 81 01 4a 01 a6 85 c2 80 45 80 14 87 08 00 38 02
       2.295e-05 1.967e-05 -8.62e-05 -1.156e-05 -4.1e-06 -0.000108 5e-07 3.386e-05
000120 ea 82 d1 80 6e 00 c4 80 a3 80 08 05 67 01 3e 01
       -4.447e-05 -1.246e-05 6.56e-06 -1.17e-05 -9.7e-06 7.68e-05 2.14e-05 1.895e-05
000130 e1 80 2e 83 d3 80 c4 80 2b 84 c5 82 ac 80 36 00
       -1.34e-05 -4.85e-05 -1.26e-05 -1.17e-05 -6.36e-05 -4.226e-05 -1.025e-05 3.2e-06
000140 0a 00 ea 82 d8 81 b2 80 03 87 0e 82 92 80 9c 80
       6e-07 -4.447e-05 -2.813e-05 -1.06e-05 -0.000107 -3.135e-05 -8.7e-06 -9.3e-06
000150 50 01 e7 01 d4 81 10 81 34 00 29 84 ad 81 56 02
       2e-05 2.9e-05 -2.79e-05 -1.62e-05 3.1e-06 -6.35e-05 -2.56e-05 3.564e-05
000160 39 00 c8 80 3e 80 d4 80 13 80 d1 81 52 81 a4 00
       3.4e-06 -1.19e-05 -3.7e-06 -1.264e-05 -1.13e-06 -2.77e-05 -2.015e-05 9.8e-06
000170 6b 02 e1 80 82 00 1d 00 47 85 38 86 2d 80 d1 80
       3.69e-05 -1.34e-05 7.75e-06 1.7e-06 -8.05e-05 -9.49e-05 -2.7e-06 -1.246e-05
000180 85 80 18 02 8f 02 09 81 9a 81 cd 80 e7 83 59 80
       -7.9e-06 3.195e-05 3.904e-05 -1.58e-05 -2.444e-05 -1.22e-05 -5.955e-05 -5.3e-06
000190 e8 00 73 80 01 00 75 00 66 00 8b 81 eb 00 c0 80
       1.38e-05 -6.85e-06 6e-08 7e-06 6.1e-06 -2.354e-05 1.4e-05 -1.144e-05
0001a0 c5 00 ed 00 57 01 8f 80 79 80 fa 81 6c 81 11 82
       1.174e-05 1.41e-05 2.044e-05 -8.5e-06 -7.2e-06 -3.016e-05 -2.17e-05 -3.153e-05
0001b0 7e 02 71 02 18 80 6a 80 1a 81 49 82 d0 81 f7 80
       3.8e-05 3.725e-05 -1.43e-06 -6.3e-06 -1.68e-05 -3.487e-05 -2.766e-05 -1.47e-05
0001c0 4a 01 0e 00 60 82 95 81 33 81 94 84 37 81 d4 01
       1.967e-05 8.3e-07 -3.624e-05 -2.414e-05 -1.83e-05 -6.986e-05 -1.854e-05 2.79e-05
0001d0 7d 80 19 81 50 02 0e 81 1f 82 d4 80 91 80 c4 81
       -7.45e-06 -1.675e-05 3.53e-05 -1.61e-05 -3.237e-05 -1.264e-05 -8.64e-06 -2.694e-05
0001e0 5a 02 c9 00 ea 80 7d 82 db 81 5f 81 7b 00 f7 00
       3.59e-05 1.2e-05 -1.395e-05 -3.797e-05 -2.83e-05 -2.09e-05 7.33e-06 1.47e-05
0001f0 1e 00 a0 81 49 81 9d 80 65 01 aa 00 89 02 db 02
       1.8e-06 -2.48e-05 -1.96e-05 -9.36e-06 2.13e-05 1.013e-05 3.87e-05 4.36e-05
