scenes/airsas/bunny_20k/example_outputs/deconvolved_measurements/numpy/weights_trans_4680_5039.npy (npy, 437888 bytes, 1 tensors)

array f2 [360, 608]
1e-05 9.6e-06 1.19e-05 9.6e-06 1.067e-05 9.24e-06 4.35e-06 1.514e-05
1.28e-05 1.085e-05 1.28e-05 1.41e-05 1.51e-05 1.144e-05 1.79e-05 1.156e-05
1.74e-05 1.41e-05 1.526e-05 1.47e-05 1.67e-05 1.305e-05 1.514e-05 1.44e-05
1.85e-05 1.61e-05 1.68e-05 1.454e-05 1.955e-05 1.68e-05 1.66e-05 1.705e-05
1.28e-05 1.514e-05 1.56e-05 1.377e-05 1.35e-05 8.9e-06 8.46e-06 1.156e-05
8.64e-06 1.42e-05 9.3e-06 1.84e-05 1.025e-05 1.53e-05 1.264e-05 1.17e-05
1.7e-05 8.4e-06 1.29e-05 7.2e-06 1.44e-05 1.04e-05 1.21e-05 8.17e-06
1.36e-05 1.12e-05 7.7e-06 1.17e-05 9.1e-06 1.085e-05 1.57e-05 1.43e-05
1.293e-05 1.097e-05 1.25e-05 1.32e-05 6.6e-06 1.127e-05 1.335e-05 4.65e-06
1.633e-05 1.144e-05 1.687e-05 1.7e-05 1.097e-05 9.66e-06 1.62e-05 -2.4e-06
1.34e-05 1.186e-05 1.19e-05 1.29e-05 1.174e-05 1.63e-05 1.407e-05 9.5e-06
8e-06 4.53e-06 1.246e-05 1.01e-05 1.395e-05 1.055e-05 1.556e-05 1.305e-05
1.34e-05 8.2e-06 1.43e-05 2.86e-06 1.42e-05 1.55e-05 9.66e-06 1.32e-05
3.34e-06 1.246e-05 8.6e-06 1.31e-05 9.3e-06 6.26e-06 2.44e-06 8.2e-06
-2.5e-06 1.746e-05 4.3e-06 9e-06 9.8e-06 8.94e-06 7.9e-06 2.086e-05
1.633e-05 1.836e-05 1.06e-05 1.07e-05 1.454e-05 1.794e-05 1.335e-05 1.436e-05
1.08e-05 1.43e-05 1.38e-05 1.39e-05 8.9e-06 1.46e-05 1.61e-05 1.49e-05
1.35e-05 1.717e-05 1.45e-05 1.323e-05 1.25e-05 1.615e-05 1.824e-05 1.67e-05
1.6e-05 2.25e-05 2.26e-05 1.854e-05 2.07e-05 2.1e-05 1.44e-05 1.6e-05
1.3e-05 -2.5e-06 -2.26e-06 -4.655e-05 1.746e-05 1.23e-05 -8.5e-06 -0.006367
-0.0369 -0.01874 0.0001662 0.10046 0.1315 0.0004032 -0.02335 -0.001491
0.000812 -0.093 -0.1063 -0.0002396 0.0795 0.1032 0.0009108 -0.0004277
-0.01662 -0.098 2.533e-05 -4.953e-05 5.305e-05 5.656e-05 0.000306 0.0001396
0.00011706 -0.02342 -0.1453 -0.002054 0.0004122 0.03876 0.0009065 0.001172
-0.000947 -0.02156 -0.0344 -0.0001501 0.03308 0.2004 0.0002424 -0.0961
-0.0879 -0.03442 -0.000608 0.01553 0.04752 0.0004783 -0.001189 0.0001194
0.11804 0.0001284 -0.000774 -0.02861 -0.1117 -0.001201 0.0003448 0.004494
0.1306 0.001249 0.0005317 -0.0002499 -0.07574 -0.0001322 -1.03e-05 5.823e-05
0.03564 5.496e-05 -9.5e-07 -0.00756 -0.04932 4.5e-06 -0.00011986 0.01502
0.02968 1.794e-05 -1.52e-05 -0.0005918 -0.01335 1.067e-05 9.3e-06 -0.0001126
3.9e-06 -9.8e-06 8.5e-06 1.025e-05 2.635e-05 2.146e-05 1.305e-05 8.34e-06
9.83e-06 5.6e-06 -2.74e-05 1.6e-06 1.365e-05 2.93e-05 -4.9e-06 1.53e-05
00000000: a800 a100 c800 a100 b300 9b00 4900 fe00
00000010: d700 b600 d700 ed00 fd00 c000 2c01 c200
00000020: 2401 ed00 0001 f700 1801 db00 fe00 f200
00000030: 3601 0e01 1a01 f400 4801 1a01 1701 1e01
00000040: d700 fe00 0601 e700 e200 9500 8e00 c200
00000050: 9100 ee00 9c00 3501 ac00 0101 d400 c400
00000060: 1d01 8d00 d800 7900 f200 ae00 cb00 8900
00000070: e400 bc00 8100 c400 9900 b600 0701 f000
00000080: d900 b800 d200 dd00 6f00 bd00 e000 4e00
00000090: 1201 c000 1b01 1d01 b800 a200 1001 2880
000000a0: e100 c700 c800 d800 c500 1101 ec00 9f00
000000b0: 8600 4c00 d100 a900 ea00 b100 0501 db00
000000c0: e100 8a00 f000 3000 ee00 0401 a200 dd00
000000d0: 3800 d100 9000 dc00 9c00 6900 2900 8a00
000000e0: 2a80 2501 4800 9700 a400 9600 8500 5e01
000000f0: 1201 3401 b200 b400 f400 2d01 e000 f100
00000100: b500 f000 e800 e900 9500 f500 0e01 fa00
00000110: e200 2001 f300 de00 d200 0f01 3201 1801
00000120: 0c01 7901 7b01 3701 5b01 6001 f200 0c01
00000130: da00 2a80 2680 0d83 2501 ce00 8f80 859e
00000140: b9a8 cca4 7209 6e2e 3530 9b0e faa5 1b96
00000150: a712 f4ad ceae da8b 172d 9b2e 7613 028f
00000160: 41a4 46ae a901 3f83 7a03 b503 030d 9308
00000170: ac07 ffa5 a6b0 3598 c10e f628 6d13 cd14
00000180: c293 85a5 67a8 eb88 3c28 6a32 f10b 27ae
00000190: a0ad 68a8 fb90 f423 152a d60f df94 d307
000001a0: 8e2f 3508 5792 53a7 26af eb94 a60d 9a1c
000001b0: 2e30 1e15 5b10 188c d9ac 5588 ad80 d103
000001c0: 9028 9a03 1080 be9f 50aa 4b00 db87 b123
000001d0: 9927 2d01 ff80 d990 d6a2 b300 9c00 6187
000001e0: 4100 a480 8f00 ac00 ba01 6801 db00 8c00
000001f0: a500 5e00 cc81 1b00 e500 ec01 5280 0101
