scenes/airsas/bunny_20k/example_outputs/deconvolved_measurements/numpy/weights_trans_44640_44999.npy (npy, 437888 bytes, 1 tensors)

array f2 [360, 608]
2.24e-05 1.81e-05 2.515e-05 2.94e-05 3.195e-05 3.475e-05 4.065e-05 4.214e-05
4.435e-05 4.894e-05 4.81e-05 4.894e-05 5.53e-05 5.14e-05 5.22e-05 5.48e-05
5.15e-05 5.06e-05 5.21e-05 4.69e-05 4.727e-05 4.405e-05 3.94e-05 3.71e-05
3.68e-05 3.266e-05 3.266e-05 3.05e-05 3.135e-05 3.356e-05 3.505e-05 3.75e-05
3.77e-05 3.827e-05 3.64e-05 3.52e-05 3.344e-05 3.207e-05 2.95e-05 3.21e-05
2.605e-05 2.927e-05 3.004e-05 2.85e-05 2.724e-05 3.22e-05 2.265e-05 3.016e-05
2.68e-05 2.77e-05 2.85e-05 3.06e-05 2.85e-05 3.475e-05 2.74e-05 3.296e-05
2.99e-05 3.123e-05 3.06e-05 3.21e-05 2.986e-05 3.07e-05 2.79e-05 3.06e-05
2.56e-05 2.95e-05 2.51e-05 2.676e-05 2.456e-05 2.07e-05 2.28e-05 1.705e-05
1.913e-05 1.8e-05 1.54e-05 1.746e-05 1.574e-05 1.53e-05 1.35e-05 1.4e-05
1.013e-05 1.013e-05 9e-06 8.7e-06 9e-06 6.8e-06 6.85e-06 5.9e-06
5.66e-06 4.4e-06 3.8e-06 4.8e-06 1.3e-06 3.6e-06 1.9e-06 1.25e-06
3.1e-06 -2.1e-06 2e-07 -1.7e-06 -1.3e-06 6e-08 1.25e-06 -3e-07
4e-06 -1.5e-06 5.4e-06 -1.85e-06 4.1e-06 3.6e-07 2.15e-06 1.5e-06
3.6e-06 -1.2e-06 6e-07 1.4e-06 -2e-06 2.1e-06 -1e-07 9.5e-07
5.9e-06 -2.15e-06 5.9e-06 4e-07 -1.55e-06 2.86e-06 -5.9e-06 -8.3e-07
-2.3e-06 -4.6e-06 -1.97e-06 3.6e-07 -3.5e-06 2.1e-06 -3.6e-06 5e-07
1.55e-06 5.25e-06 3.34e-06 5.8e-06 1.85e-06 -2.26e-06 1.5e-06 -1.97e-06
3.1e-06 5.1e-06 2.3e-06 -1e-07 1.7e-06 -8.34e-06 7.57e-06 -2.9e-06
8.64e-06 -3.1e-06 -5e-07 -4.77e-06 -1.43e-06 2.74e-06 3.6e-07 -2.56e-06
-1.6e-06 -7.75e-06 4.6e-06 1.7e-06 3.2e-06 4.3e-06 -5.07e-06 7.1e-06
-2.5e-06 5.7e-06 -6.5e-06 -1.514e-05 -4.9e-06 -1.25e-05 2.8e-06 -2.26e-06
-6.44e-06 -5.6e-06 -4.7e-06 -2.2e-06 7.2e-06 -5.5e-06 6e-08 -6.44e-06
6e-06 6.1e-06 9.66e-06 -1.5e-06 2.5e-06 -1.574e-05 -1e-06 -2.027e-05
-1.61e-05 -1.01e-05 -9.24e-06 1.14e-05 -2.5e-06 -7.4e-06 -3.11e-05 -2.915e-05
-2.09e-05 7.33e-06 1.08e-05 6.26e-06 1.14e-05 -4.26e-05 -3.1e-06 -1.436e-05
3.04e-05 7.546e-05 3.59e-05 -2.8e-06 -4.24e-05 -6.38e-05 3.62e-05 5.144e-05
4.54e-05 -9.6e-06 -0.0001394 -4.44e-05 -6.9e-06 0.0001564 0.0001625 1.3e-06
-9.155e-05 -0.0002177 -6.616e-05 2.855e-05 9.26e-05 1.3e-05 -6.807e-05 -6.855e-05
-3.9e-06 2.89e-05 -3.195e-05 -7.66e-05 -0.0001243 -9.54e-06 3.165e-05 -1.69e-05
-0.0001274 -0.0002575 -6.71e-05 6.27e-05 0.0001116 -7.874e-05 -0.0002179 -0.0001981
2.86e-06 3.1e-05 -1.91e-05 6.74e-06 9.06e-06 0.00014 6.1e-06 -1.43e-05
00000000: 7801 3001 a601 ed01 1802 4702 aa02 c302
00000010: e802 3503 2703 3503 a003 5e03 6c03 9703
00000020: 6003 5103 6a03 1303 1903 e302 9502 6e02
00000030: 6902 2402 2402 0002 0e02 3302 4c02 7502
00000040: 7902 8202 6302 4f02 3102 1a02 ef01 1b02
00000050: b501 eb01 f801 de01 c901 1c02 7c01 fa01
00000060: c201 d101 de01 0102 de01 4702 cc01 2902
00000070: f601 0c02 0102 1b02 f501 0302 d401 0102
00000080: ad01 ef01 a501 c101 9c01 5b01 7f01 1e01
00000090: 4101 2e01 0201 2501 0801 0101 e200 eb00
000000a0: aa00 aa00 9700 9200 9700 7200 7300 6300
000000b0: 5f00 4a00 4000 5100 1600 3c00 2000 1500
000000c0: 3400 2380 0300 1d80 1680 0100 1500 0580
000000d0: 4300 1980 5b00 1f80 4500 0600 2400 1900
000000e0: 3c00 1480 0a00 1700 2280 2300 0280 1000
000000f0: 6300 2480 6300 0700 1a80 3000 6380 0e80
00000100: 2780 4d80 2180 0600 3b80 2300 3c80 0800
00000110: 1a00 5800 3800 6100 1f00 2680 1900 2180
00000120: 3400 5600 2700 0280 1d00 8c80 7f00 3180
00000130: 9100 3480 0880 5080 1880 2e00 0600 2b80
00000140: 1b80 8280 4d00 1d00 3600 4800 5580 7700
00000150: 2a80 6000 6d80 fe80 5280 d280 2f00 2680
00000160: 6c80 5e80 4f80 2580 7900 5c80 0100 6c80
00000170: 6500 6600 a200 1980 2a00 0881 1180 5481
00000180: 0e81 a980 9b80 bf00 2a80 7c80 0a82 e981
00000190: 5f81 7b00 b500 6900 bf00 cb82 3480 f180
000001a0: fe01 f204 5a02 2f80 c782 2e84 5f02 5f03
000001b0: fa02 a180 9188 e982 7480 2009 5309 1600
000001c0: 0086 228b 5684 df01 1206 da00 7684 7e84
000001d0: 4180 e501 1882 0585 1388 a080 1302 1c81
000001e0: 2d88 388c 6684 1c04 5007 2985 248b 7e8a
000001f0: 3000 0802 4081 7100 9800 9608 6600 f080
