scenes/airsas/bunny_20k/example_outputs/deconvolved_measurements/numpy/weights_trans_30960_31319.npy (npy, 437888 bytes, 1 tensors)

array f2 [360, 608]
0	0x0074	6.9e-06
1	0x00d0	1.24e-05
2	0x012e	1.8e-05
3	0x00bf	1.14e-05
4	0x00e7	1.377e-05
5	0x00a5	9.83e-06
6	0x00cd	1.22e-05
7	0x00b5	1.08e-05
8	0x00bc	1.12e-05
9	0x00e3	1.353e-05
10	0x007f	7.57e-06
11	0x0102	1.54e-05
12	0x0062	5.84e-06
13	0x00d3	1.26e-05
14	0x0059	5.3e-06
15	0x00a7	9.95e-06
16	0x003d	3.64e-06
17	0x007a	7.3e-06
18	0x0068	6.2e-06
19	0x004f	4.7e-06
20	0x002b	2.56e-06
21	0x0035	3.16e-06
22	0x0047	4.23e-06
23	0x0058	5.25e-06
24	0x000e	8.3e-07
25	0x004e	4.65e-06
26	0x0021	1.97e-06
27	0x002a	2.5e-06
28	0x0047	4.23e-06
29	0x000b	6.6e-07
30	0x0062	5.84e-06
31	0x800a	-6e-07
32	0x0066	6.1e-06
33	0x8009	-5.4e-07
34	0x0039	3.4e-06
35	0x8030	-2.86e-06
36	0x0028	2.4e-06
37	0x0016	1.3e-06
38	0x003f	3.76e-06
39	0x0035	3.16e-06
40	0x0049	4.35e-06
41	0x0062	5.84e-06
42	0x004b	4.5e-06
43	0x0087	8.05e-06
44	0x001e	1.8e-06
45	0x0077	7.1e-06
46	0x001a	1.55e-06
47	0x0034	3.1e-06
48	0x0020	1.9e-06
49	0x8001	-6e-08
50	0x0017	1.4e-06
51	0x801d	-1.7e-06
52	0x002d	2.7e-06
53	0x8022	-2e-06
54	0x000f	9e-07
55	0x8020	-1.9e-06
56	0x0023	2.1e-06
57	0x8005	-3e-07
58	0x8001	-6e-08
59	0x0004	2.4e-07
60	0x802f	-2.8e-06
61	0x0011	1e-06
62	0x8054	-5e-06
63	0x0041	3.9e-06
64	0x8003	-2e-07
65	0x801c	-1.67e-06
66	0x005b	5.4e-06
67	0x802e	-2.74e-06
68	0x0061	5.8e-06
69	0x8065	-6e-06
70	0x0030	2.86e-06
71	0x8090	-8.6e-06
72	0x0023	2.1e-06
73	0x80af	-1.043e-05
74	0x8005	-3e-07
75	0x8052	-4.9e-06
76	0x804c	-4.53e-06
77	0x0026	2.26e-06
78	0x8024	-2.15e-06
79	0x0013	1.13e-06
80	0x000f	9e-07
81	0x000e	8.3e-07
82	0x000d	8e-07
83	0x0010	9.5e-07
84	0x8008	-5e-07
85	0x0046	4.2e-06
86	0x002d	2.7e-06
87	0x007b	7.33e-06
88	0x005d	5.54e-06
89	0x0059	5.3e-06
90	0x0083	7.8e-06
91	0x0054	5e-06
92	0x007f	7.57e-06
93	0x003b	3.5e-06
94	0x0087	8.05e-06
95	0x0020	1.9e-06
96	0x0071	6.74e-06
97	0x001b	1.6e-06
98	0x005f	5.66e-06
99	0x8009	-5.4e-07
100	0x002f	2.8e-06
101	0x0024	2.15e-06
102	0x8015	-1.25e-06
103	0x0029	2.44e-06
104	0x0012	1.1e-06
105	0x8014	-1.2e-06
106	0x0090	8.6e-06
107	0x801d	-1.7e-06
108	0x00a6	9.9e-06
109	0x0080	7.6e-06
110	0x004c	4.53e-06
111	0x00b5	1.08e-05
112	0x000d	8e-07
113	0x0034	3.1e-06
114	0x0041	3.9e-06
115	0x000e	8.3e-07
116	0x0030	2.86e-06
117	0x0016	1.3e-06
118	0x8003	-2e-07
119	0x0058	5.25e-06
120	0x800d	-8e-07
121	0x0094	8.8e-06
122	0x0028	2.4e-06
123	0x0073	6.85e-06
124	0x00b0	1.05e-05
125	0x0080	7.6e-06
126	0x0109	1.58e-05
127	0x005f	5.66e-06
128	0x00b5	1.08e-05
129	0x0064	5.96e-06
130	0x800f	-9e-07
131	0x001b	1.6e-06
132	0x002d	2.7e-06
133	0x0076	7.03e-06
134	0x0184	2.31e-05
135	0x01b3	2.59e-05
136	0x0270	3.72e-05
137	0x0115	1.65e-05
138	0x0072	6.8e-06
139	0x80a5	-9.83e-06
140	0x80b1	-1.055e-05
141	0x80b2	-1.06e-05
142	0x0070	6.7e-06
143	0x00f1	1.436e-05
144	0x0171	2.2e-05
145	0x00a4	9.8e-06
146	0x809e	-9.4e-06
147	0x8156	-2.04e-05
148	0x810c	-1.6e-05
149	0x0021	1.97e-06
150	0x014c	1.98e-05
151	0x0116	1.657e-05
152	0x000f	9e-07
153	0x80bc	-1.12e-05
154	0x8235	-3.37e-05
155	0x8057	-5.2e-06
156	0x002e	2.74e-06
157	0x00b7	1.09e-05
158	0x8025	-2.2e-06
159	0x8206	-3.09e-05
160	0x8256	-3.564e-05
161	0x005b	5.4e-06
162	0x01b7	2.617e-05
163	0x03a4	5.555e-05
164	0x8015	-1.25e-06
165	0x8134	-1.836e-05
166	0x81f2	-2.97e-05
167	0x8006	-3.6e-07
168	0x0263	3.64e-05
169	0x021e	3.23e-05
170	0x806a	-6.3e-06
171	0x80d2	-1.25e-05
172	0x8100	-1.526e-05
173	0x0061	5.8e-06
174	0x0120	1.717e-05
175	0x81a8	-2.53e-05
176	0x0015	1.25e-06
177	0x00e1	1.34e-05
178	0x0470	6.77e-05
179	0x00da	1.3e-05
180	0x815c	-2.074e-05
181	0x862a	-9.406e-05
182	0x8098	-9.06e-06
183	0x0065	6e-06
184	0x01b9	2.63e-05
185	0x807f	-7.57e-06
186	0x81c3	-2.69e-05
187	0x0050	4.77e-06
188	0x00e4	1.36e-05
189	0x002a	2.5e-06
190	0x8038	-3.34e-06
191	0x0026	2.26e-06
192	0x0054	5e-06
193	0x8001	-6e-08
194	0x8035	-3.16e-06
195	0x008a	8.2e-06
196	0x804c	-4.53e-06
197	0x8147	-1.95e-05
198	0x8281	-3.82e-05
199	0x809f	-9.5e-06
200	0x01d5	2.795e-05
201	0x0015	1.25e-06
202	0x002f	2.8e-06
203	0x802c	-2.6e-06
204	0x004e	4.65e-06
205	0x0063	5.9e-06
206	0x80f6	-1.466e-05
207	0x005c	5.5e-06
208	0x0127	1.76e-05
209	0x0006	3.6e-07
210	0x8055	-5.07e-06
211	0x0130	1.81e-05
212	0x0136	1.85e-05
213	0x800d	-8e-07
214	0x8042	-3.93e-06
215	0x0359	5.11e-05
216	0x8035	-3.16e-06
217	0x840c	-6.175e-05
218	0x80ab	-1.02e-05
219	0x1828	0.00203
220	0x14e7	0.001197
221	0x80c7	-1.186e-05
222	0x9d7f	-0.005367
223	0xa045	-0.00834
224	0x84fe	-7.62e-05
225	0x106d	0.0005403
226	0x2457	0.01695
227	0x1a7e	0.00317
228	0x00ee	1.42e-05
229	0xa502	-0.01956
230	0xa5d8	-0.02283
231	0xa480	-0.01758
232	0xa187	-0.010796
233	0x0004	2.4e-07
234	0x00d5	1.27e-05
235	0x1bff	0.003904
236	0x1464	0.001072
237	0x00e5	1.365e-05
238	0x975b	-0.001796
239	0x9b41	-0.003542
240	0x8a60	-0.0001945
241	0x804f	-4.7e-06
242	0x1591	0.001359
243	0x005f	5.66e-06
244	0x0027	2.3e-06
245	0x0063	5.9e-06
246	0x8003	-2e-07
247	0x81fb	-3.02e-05
248	0x0071	6.74e-06
249	0x00f1	1.436e-05
250	0x0089	8.17e-06
251	0x00e6	1.37e-05
252	0x00b9	1.1e-05
253	0x8b0f	-0.0002154
254	0xa13c	-0.01022
255	0xa89a	-0.03595
