scenes/airsas/bunny_20k/example_outputs/deconvolved_measurements/numpy/weights_trans_11160_11519.npy (npy, 437888 bytes, 1 tensors)

array f2 [360, 608]
000000 3e 80 50 81 83 80 08 86 2e 81 bb 0a b0 01 4e 80
       -3.7e-06 -2e-05 -7.8e-06 -9.2e-05 -1.8e-05 0.0002054 2.575e-05 -4.65e-06
000010 1c 82 db 80 ca 82 cf 01 4c 03 f1 81 af 80 2b 80
       -3.22e-05 -1.305e-05 -4.256e-05 2.76e-05 5.03e-05 -2.96e-05 -1.043e-05 -2.56e-06
000020 32 00 5a 02 ad 83 37 00 0d 80 4f 80 09 81 8b 83
       3e-06 3.59e-05 -5.61e-05 3.3e-06 -8e-07 -4.7e-06 -1.58e-05 -5.406e-05
000030 82 80 e5 00 15 80 99 81 43 83 4c 81 51 00 fd 80
       -7.75e-06 1.365e-05 -1.25e-06 -2.44e-05 -4.977e-05 -1.98e-05 4.8e-06 -1.51e-05
000040 ff 81 6d 81 45 80 3f 81 b7 80 29 80 42 01 e4 82
       -3.046e-05 -2.176e-05 -4.1e-06 -1.9e-05 -1.09e-05 -2.44e-06 1.92e-05 -4.41e-05
000050 cb 81 92 00 72 80 f6 80 9d 81 5a 81 43 00 c3 81
       -2.736e-05 8.7e-06 -6.8e-06 -1.466e-05 -2.46e-05 -2.06e-05 4e-06 -2.69e-05
000060 91 80 14 80 b1 81 6b 80 5f 80 31 80 72 82 36 81
       -8.64e-06 -1.2e-06 -2.58e-05 -6.4e-06 -5.66e-06 -2.9e-06 -3.73e-05 -1.85e-05
000070 3b 80 1e 81 71 83 2c 00 6c 80 cf 82 bf 80 1d 80
       -3.5e-06 -1.705e-05 -5.25e-05 2.6e-06 -6.44e-06 -4.286e-05 -1.14e-05 -1.7e-06
000080 70 82 0a 81 cf 82 54 80 33 82 72 80 54 80 89 80
       -3.72e-05 -1.585e-05 -4.286e-05 -5e-06 -3.356e-05 -6.8e-06 -5e-06 -8.17e-06
000090 3e 80 1b 80 b9 80 50 82 40 80 06 81 2b 00 a3 80
       -3.7e-06 -1.6e-06 -1.1e-05 -3.53e-05 -3.8e-06 -1.56e-05 2.56e-06 -9.7e-06
0000a0 a5 01 7b 80 f0 80 e6 80 68 82 d6 81 61 81 71 00
       2.51e-05 -7.33e-06 -1.43e-05 -1.37e-05 -3.67e-05 -2.8e-05 -2.104e-05 6.74e-06
0000b0 ed 80 2a 80 94 82 89 82 87 83 14 00 48 80 16 02
       -1.41e-05 -2.5e-06 -3.934e-05 -3.87e-05 -5.38e-05 1.2e-06 -4.3e-06 3.18e-05
0000c0 50 00 d0 80 0a 83 36 82 03 80 6d 00 f8 02 ac 81
       4.77e-06 -1.24e-05 -4.64e-05 -3.374e-05 -2e-07 6.5e-06 4.53e-05 -2.55e-05
0000d0 85 81 db 82 bf 82 51 01 c9 81 42 80 17 85 56 83
       -2.32e-05 -4.36e-05 -4.19e-05 2.01e-05 -2.724e-05 -3.93e-06 -7.766e-05 -5.09e-05
0000e0 f2 81 8d 00 7d 00 f7 80 37 83 43 83 e1 82 ad 80
       -2.97e-05 8.4e-06 7.45e-06 -1.47e-05 -4.905e-05 -4.977e-05 -4.39e-05 -1.03e-05
0000f0 46 81 0a 00 50 00 9e 80 4e 80 cb 82 c8 82 1a 80
       -1.943e-05 6e-07 4.77e-06 -9.4e-06 -4.65e-06 -4.26e-05 -4.244e-05 -1.55e-06
000100 0f 00 63 80 70 81 ed 81 02 80 65 00 32 81 c2 81
       9e-07 -5.9e-06 -2.193e-05 -2.94e-05 -1e-07 6e-06 -1.824e-05 -2.68e-05
000110 3a 80 1d 80 66 80 65 82 33 80 3e 80 89 00 09 83
       -3.46e-06 -1.7e-06 -6.1e-06 -3.654e-05 -3.04e-06 -3.7e-06 8.17e-06 -4.63e-05
000120 ab 81 b7 80 ed 00 5e 00 d6 82 08 81 a2 82 68 80
       -2.545e-05 -1.09e-05 1.41e-05 5.6e-06 -4.33e-05 -1.574e-05 -4.02e-05 -6.2e-06
000130 ce 82 20 80 0e 80 2c 81 11 81 e0 80 23 81 60 81
       -4.28e-05 -1.9e-06 -8.3e-07 -1.79e-05 -1.63e-05 -1.335e-05 -1.734e-05 -2.1e-05
000140 43 81 31 81 dd 85 ac 80 e7 80 94 82 30 84 a0 a0
       -1.925e-05 -1.82e-05 -8.947e-05 -1.025e-05 -1.377e-05 -3.934e-05 -6.39e-05 -0.00903
000150 59 84 37 00 1f 32 d6 88 95 95 f2 b1 03 b4 b3 93
       -6.634e-05 3.3e-06 0.1913 -0.0001476 -0.001363 -0.1858 -0.2507 -0.00094
000160 90 25 0d 2d b8 93 1c 0a 0a 05 67 a2 7b a8 55 94
       0.02173 0.0789 -0.000942 0.0001864 7.69e-05 -0.012505 -0.035 -0.001058
000170 4b 92 5d 81 57 29 3c 30 2f 8a 51 94 6c a8 ee ac
       -0.000768 -2.08e-05 0.04172 0.1323 -0.0001887 -0.001054 -0.03455 -0.077
000180 f2 91 e5 81 9b 8b 0a 82 22 2c ec 84 9c 86 32 a9
       -0.0007257 -2.89e-05 -0.0002321 -3.11e-05 0.0646 -7.51e-05 -0.00010085 -0.0406
000190 74 af 3d 10 05 2a 82 26 d6 8a 1d 93 19 00 7f 0c
       -0.11646 0.0005174 0.04703 0.02542 -0.0002086 -0.0008683 1.5e-06 0.0002744
0001a0 f4 a8 c0 01 b1 10 05 8f 1c 90 44 12 5b 28 0f 95
       -0.0387 2.67e-05 0.0005727 -0.0004284 -0.0005016 0.000765 0.03403 -0.001235
0001b0 c9 b4 58 b0 f7 93 67 0a a7 2f bf 2f 9a 89 91 0f
       -0.299 -0.1357 -0.0009723 0.0001954 0.11957 0.12103 -0.000171 0.0004618
0001c0 16 aa 25 af 29 91 70 89 75 0f f2 81 1f a6 68 88
       -0.04755 -0.11163 -0.00063 -0.0001659 0.0004551 -2.97e-05 -0.02391 -0.0001345
0001d0 4a 00 44 20 2e 85 07 a5 0a 86 27 0f fa 1e 2a 88
       4.4e-06 0.00833 -7.904e-05 -0.01964 -9.215e-05 0.0004365 0.006813 -0.0001271
0001e0 58 a1 f4 a9 6a 92 1c 82 d4 82 15 80 a4 04 19 1c
       -0.01044 -0.0465 -0.000783 -3.22e-05 -4.315e-05 -1.25e-06 7.08e-05 0.004
0001f0 51 80 2a 82 06 a1 5d 8f d9 83 0e 0c 5d 1c b2 81
       -4.8e-06 -3.3e-05 -0.00981 -0.0004494 -5.87e-05 0.0002475 0.00426 -2.587e-05
