scenes/airsas/bunny_20k/example_outputs/deconvolved_measurements/numpy/weights_trans_18360_18719.npy (npy, 437888 bytes, 1 tensors)

array f2 [360, 608]
0	0x020c	3.123e-05
1	0x08b6	0.0001438
2	0x016b	2.164e-05
3	0x001b	1.6e-06
4	0x8660	-9.73e-05
5	0x8045	-4.1e-06
6	0x006d	6.5e-06
7	0x01ad	2.56e-05
8	0x0036	3.2e-06
9	0x8014	-1.2e-06
10	0x005a	5.36e-06
11	0x0060	5.7e-06
12	0x8041	-3.9e-06
13	0x00f0	1.43e-05
14	0x0050	4.77e-06
15	0x8034	-3.1e-06
16	0x0027	2.3e-06
17	0x0049	4.35e-06
18	0x801e	-1.8e-06
19	0x811b	-1.687e-05
20	0x00d3	1.26e-05
21	0x0307	4.62e-05
22	0x8062	-5.84e-06
23	0x0007	4e-07
24	0x805a	-5.36e-06
25	0x0188	2.337e-05
26	0x012a	1.776e-05
27	0x0920	0.0001564
28	0x8015	-1.25e-06
29	0x8b25	-0.000218
30	0x88c0	-0.000145
31	0x0067	6.14e-06
32	0x29c9	0.0452
33	0x241e	0.01608
34	0x0175	2.223e-05
35	0x8029	-2.44e-06
36	0x8008	-5e-07
37	0x00b1	1.055e-05
38	0x0037	3.3e-06
39	0x0024	2.15e-06
40	0x8002	-1e-07
41	0x8088	-8.1e-06
42	0x005e	5.6e-06
43	0x00cc	1.216e-05
44	0x002b	2.56e-06
45	0x010a	1.585e-05
46	0x01b6	2.61e-05
47	0xa7ff	-0.03123
48	0xa186	-0.01079
49	0x003e	3.7e-06
50	0x1db8	0.005585
51	0x288d	0.03555
52	0x030c	4.65e-05
53	0x8239	-3.39e-05
54	0x003e	3.7e-06
55	0x8030	-2.86e-06
56	0x0061	5.8e-06
57	0x197d	0.00268
58	0x074a	0.0001112
59	0x000d	8e-07
60	0x96cb	-0.001658
61	0x995c	-0.002617
62	0x025c	3.6e-05
63	0x1d37	0.005093
64	0x03b7	5.67e-05
65	0x93a3	-0.000932
66	0x9463	-0.001071
67	0x0044	4.05e-06
68	0x18a3	0.002264
69	0x0df1	0.0003626
70	0x8192	-2.396e-05
71	0x83ec	-5.984e-05
72	0x8597	-8.53e-05
73	0x0b0f	0.0002154
74	0x0b93	0.0002311
75	0x0856	0.0001323
76	0x80fa	-1.49e-05
77	0x84fb	-7.6e-05
78	0x8513	-7.74e-05
79	0x814e	-1.99e-05
80	0x8382	-5.35e-05
81	0x80c7	-1.186e-05
82	0x01fc	3.03e-05
83	0x007a	7.3e-06
84	0x8010	-9.5e-07
85	0x8af2	-0.000212
86	0x0028	2.4e-06
87	0x04c4	7.27e-05
88	0x05ab	8.65e-05
89	0x800f	-9e-07
90	0x0021	1.97e-06
91	0x83a2	-5.543e-05
92	0x8060	-5.7e-06
93	0x0483	6.884e-05
94	0x02d3	4.31e-05
95	0x0111	1.63e-05
96	0x88d1	-0.000147
97	0x86b1	-0.0001021
98	0x0024	2.15e-06
99	0x01ac	2.55e-05
100	0x001c	1.67e-06
101	0x800e	-8.3e-07
102	0x815d	-2.08e-05
103	0x800a	-6e-07
104	0x8013	-1.13e-06
105	0x8005	-3e-07
106	0x8014	-1.2e-06
107	0x8021	-1.97e-06
108	0x8078	-7.15e-06
109	0x002d	2.7e-06
110	0x00b7	1.09e-05
111	0x012b	1.78e-05
112	0x8182	-2.3e-05
113	0x8273	-3.74e-05
114	0x8093	-8.76e-06
115	0x0396	5.47e-05
116	0x022b	3.31e-05
117	0x805d	-5.54e-06
118	0x81c7	-2.71e-05
119	0x010b	1.59e-05
120	0x0132	1.824e-05
121	0x0075	7e-06
122	0x825b	-3.594e-05
123	0x803e	-3.7e-06
124	0x00cd	1.22e-05
125	0x02c8	4.244e-05
126	0x80d2	-1.25e-05
127	0x80c1	-1.15e-05
128	0x0065	6e-06
129	0x0018	1.43e-06
130	0x8008	-5e-07
131	0x0065	6e-06
132	0x8052	-4.9e-06
133	0x000a	6e-07
134	0x83a9	-5.585e-05
135	0x83f2	-6.02e-05
136	0x0590	8.49e-05
137	0x01d7	2.81e-05
138	0x81a0	-2.48e-05
139	0x81b6	-2.61e-05
140	0x8012	-1.1e-06
141	0x001c	1.67e-06
142	0x814e	-1.99e-05
143	0x8314	-4.697e-05
144	0x80ca	-1.204e-05
145	0x0012	1.1e-06
146	0x80d0	-1.24e-05
147	0x0011	1e-06
148	0x82b8	-4.15e-05
149	0x823d	-3.415e-05
150	0x0043	4e-06
151	0x072e	0.00010955
152	0x0036	3.2e-06
153	0x8226	-3.28e-05
154	0x81b1	-2.58e-05
155	0x83ef	-6e-05
156	0x023c	3.41e-05
157	0x04b6	7.19e-05
158	0x8115	-1.65e-05
159	0x00b6	1.085e-05
160	0x8098	-9.06e-06
161	0x81d0	-2.766e-05
162	0x0089	8.17e-06
163	0x806b	-6.4e-06
164	0x0094	8.8e-06
165	0x057d	8.374e-05
166	0x80d4	-1.264e-05
167	0x83cb	-5.79e-05
168	0x8457	-6.62e-05
169	0x8024	-2.15e-06
170	0x0462	6.69e-05
171	0x01c4	2.694e-05
172	0x8201	-3.06e-05
173	0x81f3	-2.974e-05
174	0x005d	5.54e-06
175	0x874e	-0.00011146
176	0x80e8	-1.38e-05
177	0x081f	0.0001258
178	0x0053	4.95e-06
179	0x8108	-1.574e-05
180	0xa271	-0.01258
181	0xa03c	-0.00827
182	0x8c05	-0.0002453
183	0x0de2	0.000359
184	0x2d62	0.0841
185	0x2a45	0.04898
186	0x901e	-0.0005026
187	0xa73d	-0.02827
188	0xafb3	-0.1203
189	0x89a1	-0.0001718
190	0x0eb2	0.0004086
191	0x2b2a	0.05597
192	0x2e3b	0.09735
193	0x0113	1.64e-05
194	0x80d7	-1.28e-05
195	0xab83	-0.0587
196	0xa6c1	-0.02638
197	0x8042	-3.93e-06
198	0x839d	-5.513e-05
199	0x23b8	0.015076
200	0x252e	0.02023
201	0x011a	1.68e-05
202	0x0b32	0.0002196
203	0x968b	-0.001597
204	0xac55	-0.0677
205	0xa1c2	-0.011246
206	0x8ac1	-0.0002061
207	0x09f8	0.0001822
208	0x3161	0.1681
209	0x29b8	0.04468
210	0x025a	3.59e-05
211	0x813f	-1.9e-05
212	0xae97	-0.10297
213	0xa6d5	-0.02669
214	0x943b	-0.001033
215	0x803e	-3.7e-06
216	0x014d	1.985e-05
217	0x2aba	0.05255
218	0x00ff	1.52e-05
219	0xa009	-0.00788
220	0x8572	-8.31e-05
221	0x1049	0.000523
222	0x2695	0.02571
223	0x82a6	-4.04e-05
224	0xaf19	-0.1109
225	0xab74	-0.05823
226	0x0760	0.00011253
227	0x247b	0.0175
228	0x01c8	2.72e-05
229	0x8e04	-0.0003672
230	0xa14c	-0.010345
231	0x804d	-4.6e-06
232	0x8406	-6.14e-05
233	0x2d0b	0.0788
234	0x2a54	0.04944
235	0x80d8	-1.29e-05
236	0xa1f3	-0.01162
237	0xb0d4	-0.1509
238	0xb061	-0.1368
239	0x0818	0.0001249
240	0x153f	0.001281
241	0x2dc5	0.09015
242	0x3033	0.1312
243	0x0559	8.16e-05
244	0x0c9c	0.0002813
245	0xa7f1	-0.03102
246	0xac47	-0.06683
247	0x0402	6.115e-05
248	0x04d3	7.36e-05
249	0x28f4	0.0387
250	0x252d	0.02022
251	0x0196	2.42e-05
252	0x9e60	-0.006226
253	0xaac3	-0.05283
254	0x9ef8	-0.006805
255	0x8117	-1.66e-05
