scenes/airsas/bunny_20k/example_outputs/deconvolved_measurements/numpy/weights_trans_6840_7199.npy (npy, 437888 bytes, 1 tensors)

array f2 [360, 608]
000000 12 80 4a 80 10 80 2f 80 18 80 3a 80 20 80 1e 80
       -1.1e-06 -4.4e-06 -9.5e-07 -2.8e-06 -1.43e-06 -3.46e-06 -1.9e-06 -1.8e-06
000010 1d 80 10 80 01 80 35 80 0e 80 1e 80 01 80 31 80
       -1.7e-06 -9.5e-07 -6e-08 -3.16e-06 -8.3e-07 -1.8e-06 -6e-08 -2.9e-06
000020 3f 80 22 00 27 80 15 80 51 80 1d 80 06 80 13 80
       -3.76e-06 2e-06 -2.3e-06 -1.25e-06 -4.8e-06 -1.7e-06 -3.6e-07 -1.13e-06
000030 03 80 34 80 68 80 19 00 22 80 10 80 20 80 1e 80
       -2e-07 -3.1e-06 -6.2e-06 1.5e-06 -2e-06 -9.5e-07 -1.9e-06 -1.8e-06
000040 43 80 56 80 41 80 13 80 0a 00 19 80 15 80 53 80
       -4e-06 -5.1e-06 -3.9e-06 -1.13e-06 6e-07 -1.5e-06 -1.25e-06 -4.95e-06
000050 18 80 47 80 31 80 14 80 1a 80 04 80 17 80 0c 00
       -1.43e-06 -4.23e-06 -2.9e-06 -1.2e-06 -1.55e-06 -2.4e-07 -1.4e-06 7e-07
000060 13 80 2f 80 10 80 2c 80 29 80 06 80 2c 80 30 80
       -1.13e-06 -2.8e-06 -9.5e-07 -2.6e-06 -2.44e-06 -3.6e-07 -2.6e-06 -2.86e-06
000070 3a 80 13 80 42 80 50 80 43 80 28 80 1f 80 03 00
       -3.46e-06 -1.13e-06 -3.93e-06 -4.77e-06 -4e-06 -2.4e-06 -1.85e-06 2e-07
000080 34 80 22 80 48 80 24 80 0b 80 59 80 49 80 15 80
       -3.1e-06 -2e-06 -4.3e-06 -2.15e-06 -6.6e-07 -5.3e-06 -4.35e-06 -1.25e-06
000090 09 00 02 80 32 80 3d 80 20 80 0c 80 1a 80 45 80
       5.4e-07 -1e-07 -3e-06 -3.64e-06 -1.9e-06 -7e-07 -1.55e-06 -4.1e-06
0000a0 0b 00 0c 80 08 80 0f 80 03 00 15 00 1f 80 36 80
       6.6e-07 -7e-07 -5e-07 -9e-07 2e-07 1.25e-06 -1.85e-06 -3.2e-06
0000b0 23 80 07 00 2f 00 23 80 08 00 01 00 0e 00 09 80
       -2.1e-06 4e-07 2.8e-06 -2.1e-06 5e-07 6e-08 8.3e-07 -5.4e-07
0000c0 10 80 89 80 2b 80 0a 80 2f 80 2b 80 21 80 23 80
       -9.5e-07 -8.17e-06 -2.56e-06 -6e-07 -2.8e-06 -2.56e-06 -1.97e-06 -2.1e-06
0000d0 17 80 18 80 61 80 22 80 31 80 2b 80 09 80 39 80
       -1.4e-06 -1.43e-06 -5.8e-06 -2e-06 -2.9e-06 -2.56e-06 -5.4e-07 -3.4e-06
0000e0 21 80 2a 80 1b 80 0c 80 57 80 09 80 0a 80 27 80
       -1.97e-06 -2.5e-06 -1.6e-06 -7e-07 -5.2e-06 -5.4e-07 -6e-07 -2.3e-06
0000f0 6a 80 40 80 04 80 30 80 12 80 14 80 49 80 33 80
       -6.3e-06 -3.8e-06 -2.4e-07 -2.86e-06 -1.1e-06 -1.2e-06 -4.35e-06 -3.04e-06
000100 20 80 05 80 24 80 17 80 2c 80 07 80 10 80 1e 80
       -1.9e-06 -3e-07 -2.15e-06 -1.4e-06 -2.6e-06 -4e-07 -9.5e-07 -1.8e-06
000110 1e 80 22 80 0c 80 31 80 26 80 0d 80 06 80 0d 80
       -1.8e-06 -2e-06 -7e-07 -2.9e-06 -2.26e-06 -8e-07 -3.6e-07 -8e-07
000120 2e 80 0d 00 53 80 17 80 27 80 0a 80 59 80 24 80
       -2.74e-06 8e-07 -4.95e-06 -1.4e-06 -2.3e-06 -6e-07 -5.3e-06 -2.15e-06
000130 60 80 65 80 6b 80 82 84 04 81 ed 80 0d 01 79 01
       -5.7e-06 -6e-06 -6.4e-06 -6.88e-05 -1.55e-05 -1.41e-05 1.603e-05 2.25e-05
000140 ba 82 08 88 6f a4 b6 99 09 8c 43 32 12 20 d5 85
       -4.16e-05 -0.000123 -0.01732 -0.002789 -0.0002463 0.1957 0.00795 -8.9e-05
000150 80 b3 b6 90 c7 8f f9 af ad 8f 71 18 6b 0d b4 a2
       -0.2344 -0.000575 -0.0004747 -0.1246 -0.0004685 0.002169 0.0003307 -0.01309
000160 33 a4 30 82 2c 07 61 81 3a 81 13 05 74 a1 01 8e
       -0.0164 -3.34e-05 0.00010943 -2.104e-05 -1.87e-05 7.74e-05 -0.01065 -0.0003664
000170 a6 82 43 0c 72 09 07 04 28 09 90 a9 7b 93 84 00
       -4.04e-05 0.00026 0.0001662 6.145e-05 0.0001574 -0.04346 -0.000913 7.87e-06
000180 12 27 3c 2d 29 0c 6f a6 ca aa 4d 0d 88 0c e1 14
       0.02762 0.0818 0.000254 -0.02513 -0.05304 0.0003235 0.0002766 0.001191
000190 fa 2c eb 2c 98 13 5a ad 85 8c 66 8e 1a a8 08 12
       0.07776 0.07684 0.000927 -0.0836 -0.0002759 -0.0003905 -0.03204 0.000736
0001a0 95 2f 4e 01 d2 02 ce 03 b9 28 af 00 16 8f da ad
       0.11847 1.99e-05 4.303e-05 5.805e-05 0.0369 1.043e-05 -0.0004325 -0.09143
0001b0 96 9c 36 89 44 80 dc 09 f5 25 3a 0c 1d 80 db 86
       -0.00448 -0.000159 -4.05e-06 0.0001788 0.02327 0.000258 -1.7e-06 -0.0001046
0001c0 82 ab 01 86 09 01 39 22 5c 15 82 80 f9 a5 3a a6
       -0.05865 -9.16e-05 1.58e-05 0.01215 0.001308 -7.75e-06 -0.02333 -0.02432
0001d0 29 95 83 80 1d 80 0b 1a da 03 05 00 96 80 29 80
       -0.00126 -7.8e-06 -1.7e-06 0.00295 5.877e-05 3e-07 -8.94e-06 -2.44e-06
0001e0 e9 8c 0f 98 5f 00 16 02 6c 81 7a 89 62 81 91 81
       -0.0002997 -0.001982 5.66e-06 3.18e-05 -2.17e-05 -0.0001671 -2.11e-05 -2.39e-05
0001f0 43 80 61 0b 6b 01 38 80 d0 88 5b 80 28 80 0d 00
       -4e-06 0.0002252 2.164e-05 -3.34e-06 -0.0001469 -5.4e-06 -2.4e-06 8e-07
