scenes/airsas/bunny_20k/example_outputs/deconvolved_measurements/numpy/weights_trans_3960_4319.npy (npy, 437888 bytes, 1 tensors)

array f2 [360, 608]
000000 34 80 a1 80 a4 80 85 80 42 81 35 80 36 81 17 00
       -3.1e-06 -9.6e-06 -9.8e-06 -7.9e-06 -1.92e-05 -3.16e-06 -1.85e-05 1.4e-06
000010 d3 80 51 80 29 80 ab 80 28 00 95 80 4a 00 61 80
       -1.26e-05 -4.8e-06 -2.44e-06 -1.02e-05 2.4e-06 -8.9e-06 4.4e-06 -5.8e-06
000020 3e 00 06 00 1d 80 40 00 08 00 90 80 03 80 13 81
       3.7e-06 3.6e-07 -1.7e-06 3.8e-06 5e-07 -8.6e-06 -2e-07 -1.64e-05
000030 59 80 ce 80 10 80 93 80 08 80 79 80 2a 00 16 80
       -5.3e-06 -1.23e-05 -9.5e-07 -8.76e-06 -5e-07 -7.2e-06 2.5e-06 -1.3e-06
000040 45 80 0a 00 78 80 36 00 88 80 7d 80 3e 80 b8 80
       -4.1e-06 6e-07 -7.15e-06 3.2e-06 -8.1e-06 -7.45e-06 -3.7e-06 -1.097e-05
000050 40 80 87 80 41 80 71 80 8d 80 d1 80 59 80 dc 80
       -3.8e-06 -8.05e-06 -3.9e-06 -6.74e-06 -8.4e-06 -1.246e-05 -5.3e-06 -1.31e-05
000060 35 80 25 80 96 80 05 80 67 80 07 81 68 80 d7 80
       -3.16e-06 -2.2e-06 -8.94e-06 -3e-07 -6.14e-06 -1.57e-05 -6.2e-06 -1.28e-05
000070 6c 80 13 81 3a 80 f9 80 28 80 08 81 74 80 32 81
       -6.44e-06 -1.64e-05 -3.46e-06 -1.484e-05 -2.4e-06 -1.574e-05 -6.9e-06 -1.824e-05
000080 55 80 aa 81 76 80 07 81 24 80 4a 80 cb 00 60 80
       -5.07e-06 -2.54e-05 -7.03e-06 -1.57e-05 -2.15e-06 -4.4e-06 1.21e-05 -5.7e-06
000090 07 00 ab 80 2e 80 df 80 2c 80 db 80 5c 80 a3 80
       4e-07 -1.02e-05 -2.74e-06 -1.33e-05 -2.6e-06 -1.305e-05 -5.5e-06 -9.7e-06
0000a0 06 81 23 80 79 80 32 00 0a 00 45 00 7e 80 42 80
       -1.56e-05 -2.1e-06 -7.2e-06 3e-06 6e-07 4.1e-06 -7.5e-06 -3.93e-06
0000b0 cf 80 8f 80 91 80 d8 80 48 80 fc 80 67 00 2d 80
       -1.234e-05 -8.5e-06 -8.64e-06 -1.29e-05 -4.3e-06 -1.5e-05 6.14e-06 -2.7e-06
0000c0 13 01 39 80 08 00 9d 80 90 80 4c 80 1c 00 1d 00
       1.64e-05 -3.4e-06 5e-07 -9.36e-06 -8.6e-06 -4.53e-06 1.67e-06 1.7e-06
0000d0 8c 80 58 80 36 81 58 80 63 81 12 82 90 81 b6 80
       -8.34e-06 -5.25e-06 -1.85e-05 -5.25e-06 -2.116e-05 -3.16e-05 -2.384e-05 -1.085e-05
0000e0 ad 00 6c 80 01 00 b7 81 b1 00 2b 80 b2 00 d6 80
       1.03e-05 -6.44e-06 6e-08 -2.617e-05 1.055e-05 -2.56e-06 1.06e-05 -1.276e-05
0000f0 09 82 ca 81 ab 80 bb 00 09 00 68 80 76 81 43 80
       -3.105e-05 -2.73e-05 -1.02e-05 1.115e-05 5.4e-07 -6.2e-06 -2.23e-05 -4e-06
000100 9a 80 a8 80 b0 80 bb 80 1a 80 3a 00 de 80 3b 80
       -9.2e-06 -1e-05 -1.05e-05 -1.115e-05 -1.55e-06 3.46e-06 -1.323e-05 -3.5e-06
000110 26 00 84 80 c3 80 53 80 92 00 68 00 9d 00 35 81
       2.26e-06 -7.87e-06 -1.16e-05 -4.95e-06 8.7e-06 6.2e-06 9.36e-06 -1.84e-05
000120 1f 80 3e 80 92 81 69 81 53 81 79 01 1f 00 47 82
       -1.85e-06 -3.7e-06 -2.396e-05 -2.15e-05 -2.02e-05 2.25e-05 1.85e-06 -3.475e-05
000130 0d 81 b7 80 42 82 67 00 e8 01 e9 80 85 81 4b a1
       -1.603e-05 -1.09e-05 -3.445e-05 6.14e-06 2.91e-05 -1.39e-05 -2.32e-05 -0.01034
000140 e5 aa 64 83 ab 02 be 2f 54 28 0b 19 eb 96 db 9d
       -0.05386 -5.174e-05 4.07e-05 0.121 0.0338 0.002462 -0.001689 -0.00572
000150 45 a9 83 ae 8d 9d 2a 10 a5 33 3d 28 fd 93 79 9a
       -0.04117 -0.10175 -0.00542 0.0005083 0.2389 0.0331 -0.000975 -0.00316
000160 f2 ae c7 a8 be 92 5a 00 5b 81 3d 12 d1 0e 26 90
       -0.1085 -0.03732 -0.000823 5.36e-06 -2.07e-05 0.0007615 0.000416 -0.0005064
000170 81 a9 3e af 9e 99 e2 9a 08 22 78 20 a2 06 08 92
       -0.043 -0.11316 -0.002743 -0.00336 0.01178 0.00873 0.0001012 -0.000736
000180 51 96 1d b0 90 92 8c 0f c3 2a 90 96 47 b4 c9 ac
       -0.001542 -0.1285 -0.000801 0.0004606 0.05283 -0.001602 -0.2673 -0.07477
000190 e9 a9 cc 98 39 23 f9 15 40 9a db ab a4 90 da 2d
       -0.04617 -0.002342 0.01411 0.001458 -0.003052 -0.06137 -0.0005665 0.09143
0001a0 17 11 32 82 b1 a8 fc ad 55 a5 37 8c cf 02 4b 2e
       0.0006213 -3.35e-05 -0.03665 -0.0935 -0.02083 -0.0002573 4.286e-05 0.0983
0001b0 d9 08 1f 01 a0 95 6b ae 58 a4 5a 8f 24 90 45 29
       0.0001479 1.71e-05 -0.001373 -0.1003 -0.01697 -0.0004487 -0.0005054 0.04117
0001c0 87 0c 9e 00 32 99 bc ac 6b 92 72 83 18 80 85 26
       0.0002763 9.4e-06 -0.002537 -0.074 -0.0007834 -5.26e-05 -1.43e-06 0.02547
0001d0 33 1a ce 03 eb 81 30 a0 c7 89 4b 00 62 80 6b 00
       0.003027 5.805e-05 -2.927e-05 -0.00818 -0.0001763 4.5e-06 -5.84e-06 6.4e-06
0001e0 97 81 c2 80 ba 00 3b 19 37 80 0f 00 a7 81 5e 81
       -2.426e-05 -1.156e-05 1.11e-05 0.002554 -3.3e-06 9e-07 -2.52e-05 -2.086e-05
0001f0 9e 81 0e 80 42 00 4b 80 0c 80 e1 80 bd 80 0d 80
       -2.47e-05 -8.3e-07 3.93e-06 -4.5e-06 -7e-07 -1.34e-05 -1.127e-05 -8e-07
