scenes/airsas/bunny_20k/example_outputs/deconvolved_measurements/numpy/weights_trans_31320_31679.npy (npy, 437888 bytes, 1 tensors)

array f2 [360, 608]
00000000: be80 b700 0c01 6900 3d00 7400 2e00 a800
00000010: 0680 d400 0900 da00 1f00 9c00 8200 7700
00000020: 9900 8a00 ae00 6b00 a700 2000 bc00 0600
00000030: a400 0d00 4e00 0f80 1400 2180 1580 5a80
00000040: 0200 8c80 2100 7d80 1100 2f80 6c80 1c80
00000050: a080 1d00 6980 0880 2e80 3680 2580 5c80
00000060: 6280 8e80 9b80 ad80 7980 bd80 8180 7380
00000070: 4380 7b80 0300 a380 0380 8d80 3080 6480
00000080: 4a80 2980 5580 4580 6580 2e80 6d80 4b80
00000090: 3a80 5680 3780 4f80 5280 3180 7980 5180
000000a0: 4b80 5580 3680 4280 6980 2d80 8380 5c80
000000b0: 8280 4680 5680 5280 4780 3c80 3a80 3780
000000c0: 3380 5580 1f80 5280 6480 4380 6380 2a80
000000d0: 2d80 1580 3b80 2700 0400 2400 4600 1700
000000e0: 6200 2e80 3a00 0780 4780 3380 0a80 a980
000000f0: 1180 3e80 6b80 0a00 4880 5d80 5e80 8580
00000100: 1e80 6080 4500 2d80 2200 8f80 5880 d180
00000110: 1b80 b780 1b80 4180 3400 3080 5880 6c80
00000120: 5280 0000 5500 8700 1200 5280 3681 1381
00000130: 2b81 1500 0100 ad00 0300 2f80 b880 5b80
00000140: 2180 2a00 0a00 3680 7e80 2e80 1a80 1680
00000150: 3f80 6580 1780 3e00 2c00 8800 4a80 2200
00000160: ca80 b680 6b80 0680 b700 8900 2a00 fe80
00000170: 6681 7f80 4c80 1b80 5600 6c80 a700 5280
00000180: 7180 ad80 cd80 1080 7880 1480 8880 8280
00000190: 5180 8780 b700 2e80 3e80 1a81 6080 6c80
000001a0: ce00 2780 7800 6680 2c80 9680 0680 2e01
000001b0: 6300 7700 8981 0887 c001 b407 2080 3c81
000001c0: 2da7 9b91 9202 0221 4425 b803 8702 03a3
000001d0: 84a0 6da1 3700 ed01 3406 0780 a502 fc82
000001e0: ed97 d58d 6180 2e83 5c0a 3000 7c88 ce82
000001f0: 6700 8d08 c782 4082 bc14 0f04 8301 b792
-1.13e-05 1.09e-05 1.6e-05 6.26e-06 3.64e-06 6.9e-06 2.74e-06 1e-05
-3.6e-07 1.264e-05 5.4e-07 1.3e-05 1.85e-06 9.3e-06 7.75e-06 7.1e-06
9.1e-06 8.2e-06 1.04e-05 6.4e-06 9.95e-06 1.9e-06 1.12e-05 3.6e-07
9.8e-06 8e-07 4.65e-06 -9e-07 1.2e-06 -1.97e-06 -1.25e-06 -5.36e-06
1e-07 -8.34e-06 1.97e-06 -7.45e-06 1e-06 -2.8e-06 -6.44e-06 -1.67e-06
-9.54e-06 1.7e-06 -6.26e-06 -5e-07 -2.74e-06 -3.2e-06 -2.2e-06 -5.5e-06
-5.84e-06 -8.46e-06 -9.24e-06 -1.03e-05 -7.2e-06 -1.127e-05 -7.7e-06 -6.85e-06
-4e-06 -7.33e-06 2e-07 -9.7e-06 -2e-07 -8.4e-06 -2.86e-06 -5.96e-06
-4.4e-06 -2.44e-06 -5.07e-06 -4.1e-06 -6e-06 -2.74e-06 -6.5e-06 -4.5e-06
-3.46e-06 -5.1e-06 -3.3e-06 -4.7e-06 -4.9e-06 -2.9e-06 -7.2e-06 -4.8e-06
-4.5e-06 -5.07e-06 -3.2e-06 -3.93e-06 -6.26e-06 -2.7e-06 -7.8e-06 -5.5e-06
-7.75e-06 -4.2e-06 -5.1e-06 -4.9e-06 -4.23e-06 -3.6e-06 -3.46e-06 -3.3e-06
-3.04e-06 -5.07e-06 -1.85e-06 -4.9e-06 -5.96e-06 -4e-06 -5.9e-06 -2.5e-06
-2.7e-06 -1.25e-06 -3.5e-06 2.3e-06 2.4e-07 2.15e-06 4.2e-06 1.4e-06
5.84e-06 -2.74e-06 3.46e-06 -4e-07 -4.23e-06 -3.04e-06 -6e-07 -1.01e-05
-1e-06 -3.7e-06 -6.4e-06 6e-07 -4.3e-06 -5.54e-06 -5.6e-06 -7.9e-06
-1.8e-06 -5.7e-06 4.1e-06 -2.7e-06 2e-06 -8.5e-06 -5.25e-06 -1.246e-05
-1.6e-06 -1.09e-05 -1.6e-06 -3.9e-06 3.1e-06 -2.86e-06 -5.25e-06 -6.44e-06
-4.9e-06 0.0 5.07e-06 8.05e-06 1.1e-06 -4.9e-06 -1.85e-05 -1.64e-05
-1.78e-05 1.25e-06 6e-08 1.03e-05 2e-07 -2.8e-06 -1.097e-05 -5.4e-06
-1.97e-06 2.5e-06 6e-07 -3.2e-06 -7.5e-06 -2.74e-06 -1.55e-06 -1.3e-06
-3.76e-06 -6e-06 -1.4e-06 3.7e-06 2.6e-06 8.1e-06 -4.4e-06 2e-06
-1.204e-05 -1.085e-05 -6.4e-06 -3.6e-07 1.09e-05 8.17e-06 2.5e-06 -1.514e-05
-2.134e-05 -7.57e-06 -4.53e-06 -1.6e-06 5.1e-06 -6.44e-06 9.95e-06 -4.9e-06
-6.74e-06 -1.03e-05 -1.22e-05 -9.5e-07 -7.15e-06 -1.2e-06 -8.1e-06 -7.75e-06
-4.8e-06 -8.05e-06 1.09e-05 -2.74e-06 -3.7e-06 -1.68e-05 -5.7e-06 -6.44e-06
1.23e-05 -2.3e-06 7.15e-06 -6.1e-06 -2.6e-06 -8.94e-06 -3.6e-07 1.8e-05
5.9e-06 7.1e-06 -2.34e-05 -0.0001073 2.67e-05 0.00011754 -1.9e-06 -1.884e-05
-0.02803 -0.0006843 3.92e-05 0.00978 0.02057 5.674e-05 3.856e-05 -0.013695
-0.00882 -0.0106 3.3e-06 2.94e-05 9.465e-05 -4e-07 4.035e-05 -4.554e-05
-0.001935 -0.000356 -5.8e-06 -4.85e-05 0.0001941 2.86e-06 -0.0001369 -4.28e-05
6.14e-06 0.0001389 -4.24e-05 -3.433e-05 0.001156 6.19e-05 2.307e-05 -0.0008197
