scenes/airsas/bunny_20k/example_outputs/deconvolved_measurements/numpy/weights_trans_51480_51839.npy (npy, 437888 bytes, 1 tensors)

array f2 [360, 608]
0	0x802a	-2.5e-06
1	0x0021	1.97e-06
2	0x8005	-3e-07
3	0x8010	-9.5e-07
4	0x001a	1.55e-06
5	0x8015	-1.25e-06
6	0x002a	2.5e-06
7	0x002a	2.5e-06
8	0x003c	3.6e-06
9	0x0067	6.14e-06
10	0x004f	4.7e-06
11	0x00b7	1.09e-05
12	0x0055	5.07e-06
13	0x0067	6.14e-06
14	0x0069	6.26e-06
15	0x0017	1.4e-06
16	0x0021	1.97e-06
17	0x002f	2.8e-06
18	0x0008	5e-07
19	0x003c	3.6e-06
20	0x0026	2.26e-06
21	0x0048	4.3e-06
22	0x004c	4.53e-06
23	0x006d	6.5e-06
24	0x005c	5.5e-06
25	0x0050	4.77e-06
26	0x003e	3.7e-06
27	0x0038	3.34e-06
28	0x0024	2.15e-06
29	0x800b	-6.6e-07
30	0x0016	1.3e-06
31	0x0057	5.2e-06
32	0x002f	2.8e-06
33	0x004e	4.65e-06
34	0x006b	6.4e-06
35	0x8006	-3.6e-07
36	0x003e	3.7e-06
37	0x800f	-9e-07
38	0x0017	1.4e-06
39	0x0028	2.4e-06
40	0x800d	-8e-07
41	0x007d	7.45e-06
42	0x0030	2.86e-06
43	0x004e	4.65e-06
44	0x007c	7.4e-06
45	0x0031	2.9e-06
46	0x008e	8.46e-06
47	0x002b	2.56e-06
48	0x004c	4.53e-06
49	0x002b	2.56e-06
50	0x002c	2.6e-06
51	0x0031	2.9e-06
52	0x0045	4.1e-06
53	0x0029	2.44e-06
54	0x0028	2.4e-06
55	0x0022	2e-06
56	0x003c	3.6e-06
57	0x003d	3.64e-06
58	0x0012	1.1e-06
59	0x0048	4.3e-06
60	0x0034	3.1e-06
61	0x002c	2.6e-06
62	0x005b	5.4e-06
63	0x003c	3.6e-06
64	0x0031	2.9e-06
65	0x0038	3.34e-06
66	0x0018	1.43e-06
67	0x003c	3.6e-06
68	0x0007	4e-07
69	0x0014	1.2e-06
70	0x0052	4.9e-06
71	0x0013	1.13e-06
72	0x003b	3.5e-06
73	0x0036	3.2e-06
74	0x0023	2.1e-06
75	0x0038	3.34e-06
76	0x0033	3.04e-06
77	0x0039	3.4e-06
78	0x001b	1.6e-06
79	0x0030	2.86e-06
80	0x003a	3.46e-06
81	0x0019	1.5e-06
82	0x004e	4.65e-06
83	0x0035	3.16e-06
84	0x0029	2.44e-06
85	0x003e	3.7e-06
86	0x0051	4.8e-06
87	0x002a	2.5e-06
88	0x0023	2.1e-06
89	0x0049	4.35e-06
90	0x0018	1.43e-06
91	0x0017	1.4e-06
92	0x0026	2.26e-06
93	0x0006	3.6e-07
94	0x0042	3.93e-06
95	0x0008	5e-07
96	0x005c	5.5e-06
97	0x001c	1.67e-06
98	0x0045	4.1e-06
99	0x0033	3.04e-06
100	0x0030	2.86e-06
101	0x004a	4.4e-06
102	0x0026	2.26e-06
103	0x004b	4.5e-06
104	0x002e	2.74e-06
105	0x003d	3.64e-06
106	0x0019	1.5e-06
107	0x0052	4.9e-06
108	0x0029	2.44e-06
109	0x0044	4.05e-06
110	0x0035	3.16e-06
111	0x003a	3.46e-06
112	0x004b	4.5e-06
113	0x003e	3.7e-06
114	0x0064	5.96e-06
115	0x0032	3e-06
116	0x0043	4e-06
117	0x0017	1.4e-06
118	0x002c	2.6e-06
119	0x000b	6.6e-07
120	0x0045	4.1e-06
121	0x001c	1.67e-06
122	0x0008	5e-07
123	0x003a	3.46e-06
124	0x0001	6e-08
125	0x004c	4.53e-06
126	0x801a	-1.55e-06
127	0x003c	3.6e-06
128	0x8005	-3e-07
129	0x0035	3.16e-06
130	0x003e	3.7e-06
131	0x004d	4.6e-06
132	0x0045	4.1e-06
133	0x0032	3e-06
134	0x0040	3.8e-06
135	0x0006	3.6e-07
136	0x001d	1.7e-06
137	0x0009	5.4e-07
138	0x0028	2.4e-06
139	0x0020	1.9e-06
140	0x002c	2.6e-06
141	0x002f	2.8e-06
142	0x002b	2.56e-06
143	0x0040	3.8e-06
144	0x0028	2.4e-06
145	0x002d	2.7e-06
146	0x0013	1.13e-06
147	0x800b	-6.6e-07
148	0x801a	-1.55e-06
149	0x800b	-6.6e-07
150	0x8038	-3.34e-06
151	0x0019	1.5e-06
152	0x8025	-2.2e-06
153	0x0011	1e-06
154	0x0007	4e-07
155	0x001b	1.6e-06
156	0x0018	1.43e-06
157	0x001d	1.7e-06
158	0x001a	1.55e-06
159	0x800f	-9e-07
160	0x0035	3.16e-06
161	0x8025	-2.2e-06
162	0x8022	-2e-06
163	0x801e	-1.8e-06
164	0x8014	-1.2e-06
165	0x801a	-1.55e-06
166	0x0019	1.5e-06
167	0x801c	-1.67e-06
168	0x8008	-5e-07
169	0x0018	1.43e-06
170	0x801c	-1.67e-06
171	0x8034	-3.1e-06
172	0x800d	-8e-07
173	0x8043	-4e-06
174	0x8004	-2.4e-07
175	0x8019	-1.5e-06
176	0x000c	7e-07
177	0x0007	4e-07
178	0x8006	-3.6e-07
179	0x800b	-6.6e-07
180	0x8041	-3.9e-06
181	0x0005	3e-07
182	0x805d	-5.54e-06
183	0x003f	3.76e-06
184	0x804b	-4.5e-06
185	0x004e	4.65e-06
186	0x8005	-3e-07
187	0x0017	1.4e-06
188	0x0028	2.4e-06
189	0x0047	4.23e-06
190	0x8015	-1.25e-06
191	0x0053	4.95e-06
192	0x804d	-4.6e-06
193	0x005d	5.54e-06
194	0x0010	9.5e-07
195	0x0018	1.43e-06
196	0x0000	0.0
197	0x0031	2.9e-06
198	0x8002	-1e-07
199	0x0023	2.1e-06
200	0x8002	-1e-07
201	0x8009	-5.4e-07
202	0x8016	-1.3e-06
203	0x0000	0.0
204	0x800d	-8e-07
205	0x8008	-5e-07
206	0x000a	6e-07
207	0x801b	-1.6e-06
208	0x0023	2.1e-06
209	0x0004	2.4e-07
210	0x002e	2.74e-06
211	0x0035	3.16e-06
212	0x001e	1.8e-06
213	0x004f	4.7e-06
214	0x8018	-1.43e-06
215	0x0050	4.77e-06
216	0x0014	1.2e-06
217	0x8006	-3.6e-07
218	0x0004	2.4e-07
219	0x000e	8.3e-07
220	0x8017	-1.4e-06
221	0x0003	2e-07
222	0x0034	3.1e-06
223	0x0016	1.3e-06
224	0x0023	2.1e-06
225	0x0041	3.9e-06
226	0x0011	1e-06
227	0x0030	2.86e-06
228	0x0056	5.1e-06
229	0x8005	-3e-07
230	0x004d	4.6e-06
231	0x0032	3e-06
232	0x8006	-3.6e-07
233	0x0026	2.26e-06
234	0x0034	3.1e-06
235	0x0004	2.4e-07
236	0x0028	2.4e-06
237	0x0040	3.8e-06
238	0x8005	-3e-07
239	0x0067	6.14e-06
240	0x0019	1.5e-06
241	0x002f	2.8e-06
242	0x0027	2.3e-06
243	0x0003	2e-07
244	0x8029	-2.44e-06
245	0x0008	5e-07
246	0x0001	6e-08
247	0x8039	-3.4e-06
248	0x801b	-1.6e-06
249	0x8020	-1.9e-06
250	0x0001	6e-08
251	0x0018	1.43e-06
252	0x006e	6.56e-06
253	0x8012	-1.1e-06
254	0x0002	1e-07
255	0x803d	-3.64e-06
