scenes/airsas/bunny_20k/example_outputs/deconvolved_measurements/numpy/weights_trans_16560_16919.npy (npy, 437888 bytes, 1 tensors)

array f2 [360, 608]
000000 ec 80 1e 80 2c 01 86 00 20 02 29 03 46 03 26 01
       -1.407e-05 -1.8e-06 1.79e-05 8e-06 3.24e-05 4.82e-05 4.995e-05 1.75e-05
000010 01 00 5c 01 08 02 5b 07 d7 07 c9 02 bf a5 40 a9
       6e-08 2.074e-05 3.1e-05 0.00011224 0.0001196 4.25e-05 -0.02245 -0.04102
000020 02 80 08 01 8d 29 98 09 2a 01 35 80 10 02 d1 01
       -1e-07 1.574e-05 0.04337 0.0001707 1.776e-05 -3.16e-06 3.15e-05 2.77e-05
000030 31 02 ef 00 47 00 59 00 6c 01 6e 0a bc 11 29 02
       3.344e-05 1.425e-05 4.23e-06 5.3e-06 2.17e-05 0.0001962 0.0007 3.296e-05
000040 ce 89 74 a8 38 07 68 0b c0 28 da 23 fc 00 6a 88
       -0.0001771 -0.0348 0.00011015 0.000226 0.0371 0.015335 1.5e-05 -0.0001347
000050 1b 98 df 02 0f 17 0c 03 49 80 34 01 93 00 bb 80
       -0.002005 4.38e-05 0.001723 4.65e-05 -4.35e-06 1.836e-05 8.76e-06 -1.115e-05
000060 70 03 b7 1d 66 17 2e 02 6a 8a 50 80 c8 0e e1 14
       5.245e-05 0.00558 0.001806 3.326e-05 -0.0001957 -4.77e-06 0.000414 0.001191
000070 da 01 5d 8a 57 91 34 01 84 06 a3 02 ca 00 a2 86
       2.825e-05 -0.0001942 -0.000652 1.836e-05 9.94e-05 4.023e-05 1.204e-05 -0.0001012
000080 00 81 25 00 c2 05 76 06 d4 03 30 01 6f 82 31 00
       -1.526e-05 2.2e-06 8.786e-05 9.86e-05 5.84e-05 1.81e-05 -3.713e-05 2.9e-06
000090 6b 01 e2 01 2f 02 e3 00 0d 01 a5 00 ef 80 27 00
       2.164e-05 2.87e-05 3.33e-05 1.353e-05 1.603e-05 9.83e-06 -1.425e-05 2.3e-06
0000a0 18 01 4c 02 f6 01 13 02 62 01 1e 00 6c 00 98 00
       1.67e-05 3.505e-05 2.99e-05 3.165e-05 2.11e-05 1.8e-06 6.44e-06 9.06e-06
0000b0 83 02 1d 01 ce 00 d6 01 9e 04 a5 01 05 80 c2 8c
       3.83e-05 1.7e-05 1.23e-05 2.8e-05 7.045e-05 2.51e-05 -3e-07 -0.0002904
0000c0 4c 02 4f 04 a5 00 6d 80 d7 01 5a 03 54 03 88 81
       3.505e-05 6.574e-05 9.83e-06 -6.5e-06 2.81e-05 5.114e-05 5.08e-05 -2.337e-05
0000d0 61 85 5e 02 09 0c cb 00 ae 82 c6 01 37 05 f5 00
       -8.21e-05 3.61e-05 0.0002463 1.21e-05 -4.09e-05 2.706e-05 7.96e-05 1.46e-05
0000e0 22 80 89 00 39 03 33 01 5b 84 27 01 bd 04 06 02
       -2e-06 8.17e-06 4.92e-05 1.83e-05 -6.646e-05 1.76e-05 7.23e-05 3.09e-05
0000f0 27 89 7f 00 ff 05 7f 03 ab 01 10 02 99 81 e8 80
       -0.0001572 7.57e-06 9.15e-05 5.335e-05 2.545e-05 3.15e-05 -2.44e-05 -1.38e-05
000100 b4 00 f8 08 44 03 89 00 dd 01 55 02 39 03 7f 01
       1.07e-05 0.0001516 4.98e-05 8.17e-06 2.843e-05 3.56e-05 4.92e-05 2.28e-05
000110 35 84 6e 0b d4 03 59 03 6a 00 da 89 7e 01 9a 07
       -6.42e-05 0.0002267 5.84e-05 5.11e-05 6.3e-06 -0.0001786 2.277e-05 0.000116
000120 78 02 76 00 8b 01 6c 02 c5 01 13 80 76 80 e0 00
       3.767e-05 7.03e-06 2.354e-05 3.695e-05 2.7e-05 -1.13e-06 -7.03e-06 1.335e-05
000130 a5 02 fe 00 98 00 9a 01 00 02 78 01 16 02 ba 02
       4.035e-05 1.514e-05 9.06e-06 2.444e-05 3.05e-05 2.24e-05 3.18e-05 4.16e-05
000140 a2 01 92 80 e0 81 bd 01 25 02 7c 01 82 03 a5 03
       2.49e-05 -8.7e-06 -2.86e-05 2.65e-05 3.27e-05 2.265e-05 5.35e-05 5.56e-05
000150 36 00 01 00 14 01 57 03 d7 01 4d 07 17 0e b5 03
       3.2e-06 6e-08 1.645e-05 5.096e-05 2.81e-05 0.0001114 0.0003717 5.656e-05
000160 e6 98 1a a4 18 0c 87 06 a5 2f 67 29 6a 10 44 16
       -0.002392 -0.01602 0.0002499 9.96e-05 0.11945 0.0422 0.000539 0.00153
000170 44 b0 34 99 44 15 e6 2e f8 30 11 0f 1e 8c 2c ad
       -0.1333 -0.00254 0.001286 0.1078 0.1553 0.0004313 -0.0002513 -0.0808
000180 d7 a4 3d 0e e4 18 a1 2b f6 0c d1 09 61 00 f9 ad
       -0.0189 0.0003808 0.002388 0.0596 0.0003028 0.0001775 5.8e-06 -0.0933
000190 a3 8f a4 10 a0 2b 2c 30 b5 2a 34 0e 79 0d a5 aa
       -0.000466 0.0005665 0.05957 0.1304 0.0524 0.0003786 0.000334 -0.0519
0001a0 5d 02 99 02 79 04 57 03 f9 03 56 08 a7 20 60 24
       3.606e-05 3.964e-05 6.825e-05 5.096e-05 6.06e-05 0.0001323 0.00909 0.01709
0001b0 64 09 7d 0c 2f ad 53 ad ca 02 c1 28 f3 2b ee 07
       0.0001645 0.000274 -0.081 -0.0832 4.256e-05 0.03714 0.0621 0.000121
0001c0 02 91 96 83 1f 0e 32 1c e5 2d b4 13 2e 11 a6 ac
       -0.0006113 -5.47e-05 0.0003736 0.004097 0.0921 0.0009403 0.0006323 -0.07263
0001d0 39 b2 d4 10 69 90 19 2b 3a 32 c4 2e c8 0c 2c 0e
       -0.1945 0.0005894 -0.0005383 0.05545 0.1946 0.1057 0.0002918 0.0003767
0001e0 7c b0 10 14 50 0d 67 27 9a 2a 01 07 3e 01 eb 98
       -0.1401 0.000992 0.0003242 0.02892 0.05157 0.0001069 1.895e-05 -0.002401
0001f0 a8 00 e4 09 b0 01 ce 01 c5 1e 71 1c 39 03 f1 80
       1e-05 0.0001798 2.575e-05 2.754e-05 0.00661 0.004337 4.92e-05 -1.436e-05
