scenes/airsas/bunny_20k/example_outputs/deconvolved_measurements/numpy/weights_trans_19080_19439.npy (npy, 437888 bytes, 1 tensors)

array f2 [360, 608]
00000000: a701 188d 1880 1100 5780 9000 2c01 3c0c
00000010: 3900 6b8b 9680 7000 6613 6b06 2594 4a00
00000020: 1a80 7419 0f80 9200 1b00 d60b 8800 e380
00000030: f000 0a03 8700 1e01 2780 2600 c387 2400
00000040: dc15 1380 9c00 22a7 7f81 6401 f028 7415
00000050: 1201 a781 9100 0900 0e80 2100 5900 5a80
00000060: 3000 ac00 f70e 6500 bd81 67a7 1d81 1801
00000070: 5726 4126 cd81 5e81 3984 db00 761f b602
00000080: 0d00 879d 1a00 f880 4715 1d05 f400 e38d
00000090: 7000 e580 9015 ea00 6001 4780 4c00 b703
000000a0: 0c0e d300 6680 1982 f000 4100 4300 0480
000000b0: b804 2a01 b080 7283 3980 7c07 6607 0482
000000c0: 1b8a 8080 aa02 e803 0a00 5880 0c83 4400
000000d0: 050c 6a00 2280 1e00 db00 6200 4880 f984
000000e0: 3680 c600 c000 0a80 1201 e600 ae00 2f00
000000f0: 6e00 4b00 b901 f700 e300 8e00 9100 4600
00000100: 5500 5c80 3902 d804 6005 2b82 4e80 6200
00000110: 8d80 1703 0f00 0481 0381 6d00 5901 5100
00000120: 7581 5500 1601 8601 3603 1880 3f80 7100
00000130: 0400 3e80 de01 4902 0d80 2381 7481 a380
00000140: bb80 ad00 6000 0f01 3980 7580 3200 6e00
00000150: 6601 3782 1b80 1b01 1380 0800 0901 f800
00000160: 9700 778b f601 3b01 c501 b701 0ca2 3c9c
00000170: 3103 f000 4b2e 9d23 9689 32ac afae 0a8f
00000180: 2c05 c429 682b 1301 fd95 22aa 789f 0592
00000190: e30a 3e0a e51e c100 5889 7a96 50aa 09a2
000001a0: f804 bb12 742f c52c fa0b a10e 53ad ccaa
000001b0: c19b c798 5711 7b26 df10 5190 23ac 8194
000001c0: 5413 c00d c992 c6ae ef8d 3b8e 3082 1882
000001d0: ab8e 8d84 f385 7c28 af2c 4d84 6da0 20b0
000001e0: 3cb1 65ac b709 8827 fd30 a608 f910 4584
000001f0: dbac 379f 1896 c414 4328 ec82 1d94 67a8
2.52e-05 -0.000311 -1.43e-06 1e-06 -5.2e-06 8.6e-06 1.79e-05 0.0002584
3.4e-06 -0.0002264 -8.94e-06 6.7e-06 0.000903 9.793e-05 -0.001012 4.4e-06
-1.55e-06 0.002663 -9e-07 8.7e-06 1.6e-06 0.0002391 8.1e-06 -1.353e-05
1.43e-05 4.64e-05 8.05e-06 1.705e-05 -2.3e-06 2.26e-06 -0.00011843 2.15e-06
0.0014305 -1.13e-06 9.3e-06 -0.02786 -2.28e-05 2.12e-05 0.03857 0.001331
1.633e-05 -2.52e-05 8.64e-06 5.4e-07 -8.3e-07 1.97e-06 5.3e-06 -5.36e-06
2.86e-06 1.025e-05 0.000425 6e-06 -2.65e-05 -0.02892 -1.7e-05 1.67e-05
0.02477 0.02443 -2.75e-05 -2.086e-05 -6.443e-05 1.305e-05 0.007286 4.137e-05
8e-07 -0.005398 1.55e-06 -1.48e-05 0.001288 7.8e-05 1.454e-05 -0.0003593
6.7e-06 -1.365e-05 0.001358 1.395e-05 2.1e-05 -4.23e-06 4.53e-06 5.67e-05
0.000369 1.26e-05 -6.1e-06 -3.2e-05 1.43e-05 3.9e-06 4e-06 -2.4e-07
7.2e-05 1.776e-05 -1.05e-05 -5.26e-05 -3.4e-06 0.0001142 0.0001129 -3.076e-05
-0.0001863 -7.6e-06 4.065e-05 5.96e-05 6e-07 -5.25e-06 -4.65e-05 4.05e-06
0.0002453 6.3e-06 -2e-06 1.8e-06 1.305e-05 5.84e-06 -4.3e-06 -7.59e-05
-3.2e-06 1.18e-05 1.144e-05 -6e-07 1.633e-05 1.37e-05 1.04e-05 2.8e-06
6.56e-06 4.5e-06 2.63e-05 1.47e-05 1.353e-05 8.46e-06 8.64e-06 4.2e-06
5.07e-06 -5.5e-06 3.39e-05 7.39e-05 8.2e-05 -3.31e-05 -4.65e-06 5.84e-06
-8.4e-06 4.715e-05 9e-07 -1.55e-05 -1.544e-05 6.5e-06 2.056e-05 4.8e-06
-2.223e-05 5.07e-06 1.657e-05 2.325e-05 4.9e-05 -1.43e-06 -3.76e-06 6.74e-06
2.4e-07 -3.7e-06 2.85e-05 3.487e-05 -8e-07 -1.734e-05 -2.22e-05 -9.7e-06
-1.115e-05 1.03e-05 5.7e-06 1.615e-05 -3.4e-06 -7e-06 3e-06 6.56e-06
2.134e-05 -3.38e-05 -1.6e-06 1.687e-05 -1.13e-06 5e-07 1.58e-05 1.48e-05
9e-06 -0.0002278 2.99e-05 1.88e-05 2.7e-05 2.617e-05 -0.01181 -0.004135
4.87e-05 1.43e-05 0.0983 0.01487 -0.0001705 -0.06555 -0.10443 -0.0004296
7.89e-05 0.04504 0.05786 1.64e-05 -0.001462 -0.0479 -0.007294 -0.000735
0.0002102 0.0001905 0.006733 1.15e-05 -0.0001631 -0.001581 -0.04932 -0.01179
7.58e-05 0.0008216 0.11646 0.0745 0.0002434 0.0004046 -0.0832 -0.0531
-0.003786 -0.002333 0.000652 0.02531 0.0005946 -0.000527 -0.06464 -0.0011
0.0008945 0.000351 -0.0008283 -0.10583 -0.0003622 -0.0003803 -3.34e-05 -3.195e-05
-0.000407 -6.944e-05 -9.08e-05 0.03503 0.0732 -6.56e-05 -0.008644 -0.1289
-0.1636 -0.06866 0.0001744 0.02942 0.1559 0.0001419 0.000607 -6.515e-05
-0.07587 -0.007046 -0.001488 0.0011635 0.0333 -4.46e-05 -0.001004 -0.0344
