scenes/airsas/bunny_20k/example_outputs/deconvolved_measurements/numpy/weights_trans_53280_53639.npy (npy, 437888 bytes, 1 tensors)

array f2 [360, 608]
1.1e-06 3.93e-06 -1.5e-06 1.43e-06 1.67e-06 1.97e-06 -1.55e-06 2.9e-06
-2.1e-06 5.07e-06 -3.04e-06 7.45e-06 -2.5e-06 8.3e-06 6.1e-06 3.76e-06
9.54e-06 3.04e-06 -6.6e-07 -1.4e-06 -4e-07 -2.6e-06 5.4e-06 6.6e-07
7.45e-06 7.75e-06 5.66e-06 7.45e-06 1.2e-06 4.23e-06 1.43e-06 2.74e-06
3.7e-06 7e-06 5.9e-06 3.46e-06 -3.6e-07 -1.1e-06 -2.4e-06 1.67e-06
1.5e-06 1.47e-05 8.46e-06 1.55e-05 9.9e-06 3e-06 -8e-07 -2.6e-06
-5.8e-06 2.7e-06 4.3e-06 8e-07 5e-06 -8.34e-06 4.4e-06 -1.1e-06
8.2e-06 7.6e-06 5.6e-06 2.8e-06 2e-07 8.2e-06 6.8e-06 8.17e-06
6.2e-06 5.66e-06 4.65e-06 1.55e-05 7.75e-06 1.013e-05 5.7e-06 8.9e-06
6.56e-06 1.216e-05 -2.3e-06 4.77e-06 1.3e-06 8e-07 1.8e-06 -3.1e-06
2.1e-06 7.1e-06 -1.85e-06 3.16e-06 4.53e-06 5.36e-06 8.7e-06 1.55e-06
3.16e-06 5.96e-06 3.04e-06 4.05e-06 1.7e-06 6.7e-06 4.9e-06 4.77e-06
3.76e-06 6.2e-06 5.66e-06 6.26e-06 1.9e-06 7.03e-06 1.9e-06 -1.4e-06
2e-06 4.77e-06 5.8e-06 -4.77e-06 8.05e-06 8.7e-06 -3.16e-06 5.1e-06
6.1e-06 1.4e-06 -9e-07 4.53e-06 3.46e-06 3.76e-06 3.93e-06 7.03e-06
5.7e-06 5.54e-06 3.76e-06 4.53e-06 2e-06 2.7e-06 -8.3e-07 4.7e-06
1e-07 3.6e-06 5.9e-06 4.05e-06 5.2e-06 4.2e-06 4.5e-06 5.1e-06
2.9e-06 6.2e-06 2e-06 2.8e-06 3.5e-06 2.4e-06 3.7e-06 9.5e-07
3.9e-06 4.05e-06 -2.74e-06 8.46e-06 -2.9e-06 8.6e-06 1.1e-06 3.8e-06
6.3e-06 3.76e-06 4.4e-06 2.4e-06 3.76e-06 -3.6e-07 -2.4e-07 -1.85e-06
-4.9e-06 2e-07 -4.8e-06 -3.6e-07 -2.8e-06 -6.6e-07 -1.1e-06 -2e-06
-6.1e-06 1e-06 -5.07e-06 8e-07 -3.5e-06 2.2e-06 -4.4e-06 1.25e-06
-1.025e-05 6.6e-07 -3.4e-06 -9.5e-07 -8e-07 1.8e-06 -1.25e-06 1.8e-06
-1.43e-06 7e-07 -2.3e-06 -2.1e-06 -8.3e-07 3.3e-06 -1.1e-06 4.35e-06
2.44e-06 1.6e-06 8.7e-06 1.7e-06 4.6e-06 1.85e-06 -6e-08 -9.5e-07
3e-07 -1.3e-06 -1.3e-06 -1e-07 -2.3e-06 2.3e-06 -1.7e-06 1.9e-06
9e-07 -5.4e-07 1.5e-06 1.85e-06 -1.9e-06 2.74e-06 -4.2e-06 8e-07
5e-07 -2.56e-06 2.44e-06 -3e-07 -4e-07 1.55e-06 -6.1e-06 1.3e-06
-3.4e-06 -8e-07 -2.5e-06 1e-06 -3.7e-06 4.05e-06 -3.34e-06 4.9e-06
-2.4e-07 1.9e-06 1.25e-06 4e-07 1.6e-06 -4.05e-06 1.97e-06 -3.4e-06
1.13e-06 1.3e-06 -1e-06 3.6e-07 3.2e-06 -6e-07 7.2e-06 -3.3e-06
3.46e-06 -1.9e-06 4.1e-06 -1.23e-05 -1.97e-06 -8.7e-06 -8.94e-06 5e-07
00000000: 1200 4200 1980 1800 1c00 2100 1a80 3100
00000010: 2380 5500 3380 7d00 2a80 8b00 6600 3f00
00000020: a000 3300 0b80 1780 0780 2c80 5b00 0b00
00000030: 7d00 8200 5f00 7d00 1400 4700 1800 2e00
00000040: 3e00 7500 6300 3a00 0680 1280 2880 1c00
00000050: 1900 f700 8e00 0401 a600 3200 0d80 2c80
00000060: 6180 2d00 4800 0d00 5400 8c80 4a00 1280
00000070: 8a00 8000 5e00 2f00 0300 8a00 7200 8900
00000080: 6800 5f00 4e00 0401 8200 aa00 6000 9500
00000090: 6e00 cc00 2780 5000 1600 0d00 1e00 3480
000000a0: 2300 7700 1f80 3500 4c00 5a00 9200 1a00
000000b0: 3500 6400 3300 4400 1d00 7000 5200 5000
000000c0: 3f00 6800 5f00 6900 2000 7600 2000 1780
000000d0: 2200 5000 6100 5080 8700 9200 3580 5600
000000e0: 6600 1700 0f80 4c00 3a00 3f00 4200 7600
000000f0: 6000 5d00 3f00 4c00 2200 2d00 0e80 4f00
00000100: 0200 3c00 6300 4400 5700 4600 4b00 5600
00000110: 3100 6800 2200 2f00 3b00 2800 3e00 1000
00000120: 4100 4400 2e80 8e00 3180 9000 1200 4000
00000130: 6a00 3f00 4a00 2800 3f00 0680 0480 1f80
00000140: 5280 0300 5180 0680 2f80 0b80 1280 2280
00000150: 6680 1100 5580 0d00 3b80 2500 4a80 1500
00000160: ac80 0b00 3980 1080 0d80 1e00 1580 1e00
00000170: 1880 0c00 2780 2380 0e80 3700 1280 4900
00000180: 2900 1b00 9200 1d00 4d00 1f00 0180 1080
00000190: 0500 1680 1680 0280 2780 2700 1d80 2000
000001a0: 0f00 0980 1900 1f00 2080 2e00 4680 0d00
000001b0: 0800 2b80 2900 0580 0780 1a00 6680 1600
000001c0: 3980 0d80 2a80 1100 3e80 4400 3880 5200
000001d0: 0480 2000 1500 0700 1b00 4480 2100 3980
000001e0: 1300 1600 1180 0600 3600 0a80 7900 3780
000001f0: 3a00 2080 4500 ce80 2180 9280 9680 0800
