scenes/airsas/bunny_20k/example_outputs/deconvolved_measurements/numpy/weights_trans_35280_35639.npy (npy, 437888 bytes, 1 tensors)

array f2 [360, 608]
1.1e-06 5.1e-06 3.34e-06 1.9e-06 6.44e-06 3.93e-06 7.6e-06 1.5e-06
1.08e-05 5.5e-06 3.3e-06 1.04e-05 2.4e-06 3.1e-06 5.1e-06 3.34e-06
4.05e-06 3.8e-06 8.46e-06 1.7e-06 8.05e-06 1.25e-06 3.46e-06 3.46e-06
3.5e-06 4e-07 4.1e-06 3e-06 4e-06 -2e-07 5.36e-06 5.8e-06
4.23e-06 7.7e-06 4.6e-06 3.5e-06 7e-06 8e-07 4.95e-06 0.0
5.25e-06 -6e-08 2.2e-06 1.3e-06 2.26e-06 9e-07 4.05e-06 1.13e-06
2.86e-06 5.54e-06 5.3e-06 6.1e-06 3.6e-06 4.95e-06 4.3e-06 4.3e-06
6.9e-06 7.7e-06 5.3e-06 1.127e-05 3.64e-06 1.31e-05 3.3e-06 8.9e-06
7.87e-06 7.15e-06 8.9e-06 4.7e-06 9.06e-06 6.14e-06 7.33e-06 6.9e-06
6.4e-06 3.7e-06 3.2e-06 3.1e-06 3e-07 3.1e-06 -1.1e-06 5.4e-06
2.86e-06 8.1e-06 4e-06 8e-06 4.2e-06 4.65e-06 4.23e-06 5e-06
3.7e-06 4.9e-06 4.8e-06 1.2e-06 5.07e-06 -3e-07 2e-06 1.9e-06
1.8e-06 3.93e-06 3.16e-06 6.3e-06 6.44e-06 2.5e-06 2.44e-06 8.46e-06
2e-07 8e-06 1.97e-06 3.6e-06 3.16e-06 7.87e-06 6.1e-06 9e-06
3.93e-06 6.2e-06 1.8e-06 3.34e-06 3.4e-06 8.5e-06 4e-06 3.5e-06
2.6e-06 2.2e-06 4.95e-06 7.9e-06 3.8e-06 9.36e-06 1.2e-06 3.34e-06
3.34e-06 7.03e-06 5.96e-06 5.07e-06 2.3e-06 2.56e-06 5.2e-06 8.7e-06
5.25e-06 2.8e-06 -1.85e-06 6e-08 3.7e-06 4.4e-06 9.4e-06 1.13e-06
1.144e-05 7.5e-06 1.72e-05 9.9e-06 5.36e-06 6.6e-07 -1e-06 9.24e-06
1.26e-05 2.456e-05 1.21e-05 2.35e-05 7.2e-06 1.03e-05 -3.1e-06 1.18e-05
8.46e-06 2.474e-05 2.48e-05 6.85e-06 2.8e-06 -9.54e-06 -4e-06 5.96e-06
1.65e-05 7.03e-06 -5.8e-06 -1.454e-05 -3.135e-05 2.104e-05 9.24e-06 5.93e-05
-9.6e-06 -2.384e-05 -5.823e-05 -2.68e-05 1.323e-05 6.324e-05 1.79e-05 7.45e-06
-7.81e-05 -2.104e-05 2.06e-05 0.000113 0.0001311 2.45e-05 -6.425e-05 -0.0001467
-6.4e-06 5.525e-05 0.00017 1e-07 -5.364e-05 -0.0001682 -2.444e-05 5.895e-05
6.73e-05 2.26e-06 -0.000132 -6.43e-05 6.44e-06 5.24e-05 9.9e-06 -4.36e-05
-6e-06 1.47e-05 7.7e-06 -1.097e-05 -1.484e-05 3.76e-05 7.87e-06 3.8e-06
9e-06 4.864e-05 2.15e-06 -3.886e-05 -6.3e-05 3.68e-05 7.45e-05 3.976e-05
-7.5e-06 -5.215e-05 2.81e-05 4.79e-05 1.81e-05 6.264e-05 1e-06 8.4e-06
-2.74e-06 1.11e-05 -1.97e-06 1.365e-05 0.0002792 0.0001268 -2.307e-05 -0.01167
3.97e-05 3.67e-05 0.02422 0.03833 0.01958 3.153e-05 -0.01409 -0.03262
6e-08 0.0006413 0.001655 -0.000347 -6.86e-05 0.0002075 0.01142 0.0001435
00000000: 1200 5600 3800 2000 6c00 4200 8000 1900
00000010: b500 5c00 3700 ae00 2800 3400 5600 3800
00000020: 4400 4000 8e00 1d00 8700 1500 3a00 3a00
00000030: 3b00 0700 4500 3200 4300 0380 5a00 6100
00000040: 4700 8100 4d00 3b00 7500 0d00 5300 0000
00000050: 5800 0180 2500 1600 2600 0f00 4400 1300
00000060: 3000 5d00 5900 6600 3c00 5300 4800 4800
00000070: 7400 8100 5900 bd00 3d00 dc00 3700 9500
00000080: 8400 7800 9500 4f00 9800 6700 7b00 7400
00000090: 6b00 3e00 3600 3400 0500 3400 1280 5b00
000000a0: 3000 8800 4300 8600 4600 4e00 4700 5400
000000b0: 3e00 5200 5100 1400 5500 0580 2200 2000
000000c0: 1e00 4200 3500 6a00 6c00 2a00 2900 8e00
000000d0: 0300 8600 2100 3c00 3500 8400 6600 9700
000000e0: 4200 6800 1e00 3800 3900 8f00 4300 3b00
000000f0: 2c00 2500 5300 8500 4000 9d00 1400 3800
00000100: 3800 7600 6400 5500 2700 2b00 5700 9200
00000110: 5800 2f00 1f80 0100 3e00 4a00 9e00 1300
00000120: c000 7e00 2101 a600 5a00 0b00 1180 9b00
00000130: d300 9c01 cb00 8a01 7900 ad00 3480 c600
00000140: 8e00 9f01 a001 7300 2f00 a080 4380 6400
00000150: 1501 7600 6180 f480 0e82 6101 9b00 e303
00000160: a180 9081 d183 c281 de00 2504 2c01 7d00
00000170: 1e85 6181 5a01 6807 4c08 9b01 3684 cf88
00000180: 6b80 9f03 9209 0200 8483 8389 9a81 dd03
00000190: 6904 2600 5388 3784 6c00 6f03 a600 db82
000001a0: 6580 f700 8100 b880 f980 7702 8400 4000
000001b0: 9700 3003 2400 8c82 2184 6902 e204 9b02
000001c0: 7e80 6b83 d701 2403 3001 1b04 1100 8d00
000001d0: 2e80 ba00 2180 e500 930c 2808 8381 faa1
000001e0: 9a02 6802 3326 e828 0325 1102 37a3 2da8
000001f0: 0100 4111 c716 af8d 7f84 cd0a d921 b408
