scenes/airsas/bunny_20k/example_outputs/deconvolved_measurements/numpy/weights_trans_21600_21959.npy (npy, 437888 bytes, 1 tensors)

array f2 [360, 608]
0	0x005e	5.6e-06
1	0x0064	5.96e-06
2	0x00e7	1.377e-05
3	0x007a	7.3e-06
4	0x804b	-4.5e-06
5	0x8070	-6.7e-06
6	0x0002	1e-07
7	0x00a5	9.83e-06
8	0x00c4	1.17e-05
9	0x0005	3e-07
10	0x005b	5.4e-06
11	0x00a8	1e-05
12	0x0117	1.66e-05
13	0x0038	3.34e-06
14	0x80ec	-1.407e-05
15	0x812a	-1.776e-05
16	0x002f	2.8e-06
17	0x0066	6.1e-06
18	0x0165	2.13e-05
19	0x00ba	1.11e-05
20	0x009e	9.4e-06
21	0x0142	1.92e-05
22	0x0121	1.72e-05
23	0x0158	2.05e-05
24	0x800f	-9e-07
25	0x00a4	9.8e-06
26	0x000f	9e-07
27	0x0026	2.26e-06
28	0x80e4	-1.36e-05
29	0x0010	9.5e-07
30	0x0102	1.54e-05
31	0x014b	1.97e-05
32	0x0027	2.3e-06
33	0x00a5	9.83e-06
34	0x801d	-1.7e-06
35	0x00a8	1e-05
36	0x00eb	1.4e-05
37	0x0085	7.9e-06
38	0x00a7	9.95e-06
39	0x0053	4.95e-06
40	0x0044	4.05e-06
41	0x00a6	9.9e-06
42	0x00ad	1.03e-05
43	0x0115	1.65e-05
44	0x00de	1.323e-05
45	0x0066	6.1e-06
46	0x0089	8.17e-06
47	0x81c4	-2.694e-05
48	0x006c	6.44e-06
49	0x8170	-2.193e-05
50	0x8123	-1.734e-05
51	0x01df	2.855e-05
52	0x0179	2.25e-05
53	0x0112	1.633e-05
54	0x807b	-7.33e-06
55	0xa1f1	-0.011604
56	0xa9a7	-0.04416
57	0x031a	4.73e-05
58	0x1db6	0.005577
59	0x15f0	0.00145
60	0x09c2	0.0001757
61	0xa024	-0.00809
62	0x8013	-1.13e-06
63	0x04f6	7.57e-05
64	0x037e	5.33e-05
65	0x0d58	0.0003262
66	0x83af	-5.62e-05
67	0x8105	-1.556e-05
68	0x81a1	-2.486e-05
69	0x83ab	-5.597e-05
70	0x02b0	4.1e-05
71	0x80aa	-1.013e-05
72	0x051d	7.8e-05
73	0xa819	-0.032
74	0xa382	-0.01466
75	0x067f	9.91e-05
76	0x22ba	0.01314
77	0x2877	0.03488
78	0x0107	1.57e-05
79	0x011a	1.68e-05
80	0x876c	-0.00011325
81	0x007e	7.5e-06
82	0x13c5	0.0009484
83	0x0230	3.34e-05
84	0x8274	-3.743e-05
85	0x8014	-1.2e-06
86	0x0045	4.1e-06
87	0x00ce	1.23e-05
88	0x00eb	1.4e-05
89	0x8028	-2.4e-06
90	0x8014	-1.2e-06
91	0x81ab	-2.545e-05
92	0x8a33	-0.0001892
93	0x00ea	1.395e-05
94	0x806f	-6.6e-06
95	0x01d0	2.766e-05
96	0x01b0	2.575e-05
97	0x0048	4.3e-06
98	0x0041	3.9e-06
99	0x8123	-1.734e-05
100	0x0031	2.9e-06
101	0x806a	-6.3e-06
102	0x00be	1.13e-05
103	0x0152	2.015e-05
104	0x8023	-2.1e-06
105	0x001c	1.67e-06
106	0x80f9	-1.484e-05
107	0x007c	7.4e-06
108	0x00c4	1.17e-05
109	0x8060	-5.7e-06
110	0x8074	-6.9e-06
111	0x80f5	-1.46e-05
112	0x00dd	1.32e-05
113	0x011e	1.705e-05
114	0x0172	2.205e-05
115	0x818d	-2.366e-05
116	0x8298	-3.96e-05
117	0x8090	-8.6e-06
118	0x00d9	1.293e-05
119	0x0112	1.633e-05
120	0x801a	-1.55e-06
121	0x8033	-3.04e-06
122	0x8070	-6.7e-06
123	0x802d	-2.7e-06
124	0x00c2	1.156e-05
125	0x0154	2.027e-05
126	0x804e	-4.65e-06
127	0x8026	-2.26e-06
128	0x008f	8.5e-06
129	0x0067	6.14e-06
130	0x0078	7.15e-06
131	0x0036	3.2e-06
132	0x00a7	9.95e-06
133	0x010c	1.6e-05
134	0x0121	1.72e-05
135	0x0136	1.85e-05
136	0x0111	1.63e-05
137	0x800b	-6.6e-07
138	0x8042	-3.93e-06
139	0x0118	1.67e-05
140	0x0285	3.844e-05
141	0x0171	2.2e-05
142	0x015c	2.074e-05
143	0x0084	7.87e-06
144	0x008c	8.34e-06
145	0x004b	4.5e-06
146	0x8032	-3e-06
147	0x03a7	5.573e-05
148	0x0039	3.4e-06
149	0x0006	3.6e-07
150	0x8114	-1.645e-05
151	0x005e	5.6e-06
152	0x0092	8.7e-06
153	0x00ab	1.02e-05
154	0x0103	1.544e-05
155	0x00b6	1.085e-05
156	0x0057	5.2e-06
157	0x8031	-2.9e-06
158	0x0155	2.03e-05
159	0x00c9	1.2e-05
160	0x8242	-3.445e-05
161	0x80b8	-1.097e-05
162	0x8023	-2.1e-06
163	0x0142	1.92e-05
164	0x807c	-7.4e-06
165	0x0034	3.1e-06
166	0x00a9	1.01e-05
167	0x0186	2.325e-05
168	0x0035	3.16e-06
169	0x002d	2.7e-06
170	0x00cb	1.21e-05
171	0x007d	7.45e-06
172	0x0054	5e-06
173	0x014b	1.97e-05
174	0x0114	1.645e-05
175	0x00bd	1.127e-05
176	0x0056	5.1e-06
177	0x8170	-2.193e-05
178	0x00dd	1.32e-05
179	0x03df	5.907e-05
180	0x8084	-7.87e-06
181	0x00af	1.043e-05
182	0x80ba	-1.11e-05
183	0x8c0c	-0.000247
184	0x806f	-6.6e-06
185	0x0653	9.65e-05
186	0x0bea	0.0002415
187	0x013f	1.9e-05
188	0x8d6a	-0.0003304
189	0xa207	-0.01177
190	0x9aef	-0.003386
191	0x00e0	1.335e-05
192	0x1ea5	0.00649
193	0x2d92	0.08704
194	0x0364	5.174e-05
195	0x9095	-0.0005593
196	0xace0	-0.0762
197	0xa0b4	-0.009186
198	0x013c	1.884e-05
199	0x0053	4.95e-06
200	0x02e0	4.387e-05
201	0x027d	3.797e-05
202	0x18d6	0.002361
203	0x1969	0.002642
204	0x0203	3.07e-05
205	0xa59d	-0.02193
206	0xa0dd	-0.0095
207	0x01de	2.85e-05
208	0x01c4	2.694e-05
209	0x8011	-1e-06
210	0x02e2	4.4e-05
211	0x8125	-1.746e-05
212	0x8086	-8e-06
213	0x00b6	1.085e-05
214	0x82cd	-4.274e-05
215	0xa32e	-0.01402
216	0x9cd8	-0.00473
217	0x929a	-0.000806
218	0x0f7d	0.000457
219	0x2d87	0.08636
220	0x2b81	0.05862
221	0x8b9b	-0.0002321
222	0x8a64	-0.000195
223	0xaf3b	-0.113
224	0xac9c	-0.072
225	0xa913	-0.03964
226	0x06c6	0.00010335
227	0x0aa1	0.0002023
228	0x2ad1	0.05325
229	0x1071	0.000542
230	0x02b4	4.125e-05
231	0xabe4	-0.06165
232	0xa8e6	-0.03827
233	0x0948	0.0001612
234	0x29f1	0.04642
235	0x14a1	0.00113
236	0x00e2	1.35e-05
237	0x8c5d	-0.0002663
238	0xa906	-0.03925
239	0xac70	-0.06934
240	0x86bc	-0.00010276
241	0x81dd	-2.843e-05
242	0x09f5	0.0001818
243	0x2855	0.03384
244	0x0a35	0.0001894
245	0x8224	-3.266e-05
246	0x01f6	2.99e-05
247	0xa905	-0.0392
248	0xab01	-0.05472
249	0xaccc	-0.07495
250	0x953e	-0.00128
251	0x17d2	0.001909
252	0x2db3	0.08905
253	0x2d14	0.07935
254	0x0787	0.00011486
255	0x965e	-0.0015545
