scenes/airsas/bunny_20k/example_outputs/deconvolved_measurements/numpy/weights_trans_16200_16559.npy (npy, 437888 bytes, 1 tensors)

array f2 [360, 608]
00000000: 2380 2e01 890c 4480 a984 5b82 ea81 4001
00000010: 6e1d ab1f 3d81 6b9d 9caa ee8e 6181 9928
00000020: 4c21 4d01 9b80 4f81 0100 3e81 0681 e780
00000030: f681 6c82 ba81 ca00 3780 d081 8ca8 dc88
00000040: ec83 2a29 a024 c680 0487 8382 0580 ad1c
00000050: 9a80 9481 8581 bd82 5b81 9405 cb0d b50c
00000060: e181 6e89 8181 7880 bd10 f003 e181 9287
00000070: 1782 7e01 5409 1e80 2a81 8185 8381 5281
00000080: 8e04 7380 7180 d481 5a86 dd80 a900 6b02
00000090: 5880 448a 1787 2f81 0100 2b80 a881 0481
000000a0: 3307 e203 5a07 9281 b487 a280 4180 5080
000000b0: 8d80 fc00 2707 0380 2c83 0a86 cf81 c081
000000c0: 9280 de80 1681 0783 9880 ba81 8184 4804
000000d0: cd05 3382 d082 be81 1101 2f01 1301 6780
000000e0: 2281 0d81 9581 9780 7400 4084 da85 5e81
000000f0: fd01 f800 e682 5982 6384 8786 fb02 3180
00000100: 1880 da81 6900 2e83 e681 9880 ce80 8d02
00000110: 1b82 9d84 9f86 3883 5180 6104 2b81 7980
00000120: 4a86 6883 3d82 9180 5f00 5580 bb82 7981
00000130: 2c81 1683 8781 f780 1982 7f83 4c80 2180
00000140: 3d80 f980 1285 1700 0684 6f83 3302 1780
00000150: 858d 5083 d181 4887 2d02 f900 8583 699d
00000160: d4a0 b190 4088 6d2f e42a a494 e89c 9eb0
00000170: 18a9 a497 dc2a 4e32 e208 c195 c5ac 4ea8
00000180: b984 530c 3d2b d503 1596 c98f 4eaf 199c
00000190: b395 c722 772f 9107 0888 42a0 c9aa a490
000001a0: a092 3582 7380 c283 0e05 f325 a100 2487
000001b0: db92 f1ad 03ae 2396 851a 481e 1e8e d5a8
000001c0: 398f 2485 b905 4c2e 3200 d699 aaae 7cb1
000001d0: 159c 2a96 418e 8f33 fa1c 5d8c e8a6 dbb1
000001e0: d89b 7295 d415 2327 7f89 cba6 1a96 6a83
000001f0: 8300 8380 fd80 b400 8083 f380 6091 ada8
-2.1e-06 1.8e-05 0.0002768 -4.05e-06 -7.11e-05 -3.594e-05 -2.92e-05 1.91e-05
0.005302 0.00749 -1.89e-05 -0.00529 -0.05164 -0.000423 -2.104e-05 0.03592
0.010345 1.985e-05 -9.24e-06 -1.997e-05 6e-08 -1.895e-05 -1.56e-05 -1.377e-05
-2.99e-05 -3.695e-05 -2.635e-05 1.204e-05 -3.3e-06 -2.766e-05 -0.03552 -0.0001483
-5.984e-05 0.04034 0.01807 -1.18e-05 -0.00010705 -3.83e-05 -3e-07 0.004566
-9.2e-06 -2.41e-05 -2.32e-05 -4.18e-05 -2.07e-05 8.51e-05 0.0003536 0.0002873
-2.867e-05 -0.0001657 -2.295e-05 -7.15e-06 0.0005784 6.01e-05 -2.867e-05 -0.0001155
-3.19e-05 2.277e-05 0.0001626 -1.8e-06 -1.776e-05 -8.4e-05 -2.307e-05 -2.015e-05
6.95e-05 -6.85e-06 -6.74e-06 -2.79e-05 -9.69e-05 -1.32e-05 1.01e-05 3.69e-05
-5.25e-06 -0.0001912 -0.0001082 -1.806e-05 6e-08 -2.56e-06 -2.53e-05 -1.55e-05
0.00010985 5.925e-05 0.0001122 -2.396e-05 -0.00011754 -9.66e-06 -3.9e-06 -4.77e-06
-8.4e-06 1.5e-05 0.00010914 -2e-07 -4.84e-05 -9.215e-05 -2.76e-05 -2.67e-05
-8.7e-06 -1.323e-05 -1.657e-05 -4.62e-05 -9.06e-06 -2.635e-05 -6.87e-05 6.53e-05
8.85e-05 -3.356e-05 -4.29e-05 -2.66e-05 1.63e-05 1.806e-05 1.64e-05 -6.14e-06
-1.73e-05 -1.603e-05 -2.414e-05 -9e-06 6.9e-06 -6.485e-05 -8.93e-05 -2.086e-05
3.034e-05 1.48e-05 -4.42e-05 -3.58e-05 -6.694e-05 -9.96e-05 4.55e-05 -2.9e-06
-1.43e-06 -2.825e-05 6.26e-06 -4.85e-05 -2.897e-05 -9.06e-06 -1.23e-05 3.89e-05
-3.21e-05 -7.04e-05 -0.00010103 -4.91e-05 -4.8e-06 6.68e-05 -1.78e-05 -7.2e-06
-9.596e-05 -5.2e-05 -3.415e-05 -8.64e-06 5.66e-06 -5.07e-06 -4.166e-05 -2.25e-05
-1.79e-05 -4.71e-05 -2.33e-05 -1.47e-05 -3.2e-05 -5.335e-05 -4.53e-06 -1.97e-06
-3.64e-06 -1.484e-05 -7.737e-05 1.4e-06 -6.14e-05 -5.24e-05 3.356e-05 -1.4e-06
-0.000337 -5.054e-05 -2.77e-05 -0.0001111 3.32e-05 1.484e-05 -5.37e-05 -0.005283
-0.00943 -0.0005727 -0.0001297 0.116 0.05383 -0.001133 -0.00479 -0.1443
-0.0398 -0.001865 0.0536 0.197 0.000149 -0.001405 -0.0745 -0.03363
-7.206e-05 0.000264 0.05655 5.85e-05 -0.001485 -0.0004752 -0.11414 -0.004
-0.001391 0.01324 0.11664 0.00011545 -0.000123 -0.008316 -0.053 -0.0005665
-0.0008087 -3.37e-05 -6.85e-06 -5.734e-05 7.71e-05 0.02324 9.6e-06 -0.00010896
-0.000837 -0.09283 -0.09393 -0.001498 0.003183 0.006134 -0.0003734 -0.03775
-0.0004408 -7.844e-05 8.73e-05 0.0984 3e-06 -0.00285 -0.1041 -0.1714
-0.003986 -0.001505 -0.0003817 0.2362 0.00486 -0.0002663 -0.02698 -0.183
-0.00383 -0.001329 0.001423 0.02788 -0.0001677 -0.02654 -0.00149 -5.21e-05
7.8e-06 -7.8e-06 -1.51e-05 1.07e-05 -5.34e-05 -1.45e-05 -0.000656 -0.03653
