scenes/airsas/bunny_20k/example_outputs/deconvolved_measurements/numpy/weights_trans_10800_11159.npy (npy, 437888 bytes, 1 tensors)

array f2 [360, 608]
00000000: 2d80 5301 4f01 5100 0f80 5580 5980 4281
00000010: 3e83 6680 c403 1700 6080 5881 8e00 9480
00000020: 6c00 3580 d480 6b84 2d82 5d80 3a80 5280
00000030: f580 4281 0300 1680 f801 eb80 d681 6581
00000040: 4080 1000 0180 0980 d280 3380 0f80 7680
00000050: 1000 6580 3880 7d00 1b00 d500 2480 1e80
00000060: f980 5d80 1201 7984 7800 ad00 ad80 7981
00000070: e100 0001 2800 d280 a000 4500 7880 3780
00000080: 2400 2280 2e00 7080 4f80 6d80 5780 d880
00000090: 2781 0980 2780 0d00 5a00 5b00 c200 fd80
000000a0: be80 5380 2f81 8480 0001 6b80 1000 2c80
000000b0: 6180 1700 5a00 6b01 2400 c400 ce80 2f81
000000c0: ea81 dd80 0480 dc00 8700 9280 1680 4b81
000000d0: 0800 4180 b200 4380 0800 5780 a900 f300
000000e0: e001 e600 2881 dd81 8682 5b80 7080 1c01
000000f0: a480 9a80 2b81 7180 9680 f180 cc81 5480
00000100: 2d80 7d80 2581 b581 e700 4f00 7e00 e980
00000110: 8e80 3a00 2282 c280 0900 6980 4780 e783
00000120: 8b82 d280 d280 c500 6981 1d00 b581 8b80
00000130: 1c81 4580 e080 8b80 8102 c600 2981 5581
00000140: e181 6a00 3501 d381 3487 8986 7b95 62a2
00000150: 1281 ad2e 0731 7f93 a799 9ab4 96a8 1c10
00000160: df2f 671f 5612 c692 9892 2ba8 c4a2 4692
00000170: 0a02 6d10 4a30 7125 a900 6498 42ae 4e8d
00000180: af81 8b81 fc00 3a2c 670c 9d89 7ea7 38b0
00000190: fb92 d315 1a27 2584 47a8 6313 061c 1bac
000001a0: 0999 ba03 e78a 1299 ff8f 672c 1898 07b2
000001b0: 55b3 b594 a10c ef29 e830 7f0f 3290 60a6
000001c0: 50b0 5689 ef82 e51e 2b81 d4a0 e185 e500
000001d0: 3428 0880 ae8e cf98 1789 7a1e 4e00 0388
000001e0: 6ba8 08a0 1d8c 4183 1984 7f10 001c a401
000001f0: 908b 6784 bda5 5382 4180 921b 550c eb84
-2.7e-06 2.02e-05 1.997e-05 4.8e-06 -9e-07 -5.07e-06 -5.3e-06 -1.92e-05
-4.95e-05 -6.1e-06 5.746e-05 1.4e-06 -5.7e-06 -2.05e-05 8.46e-06 -8.8e-06
6.44e-06 -3.16e-06 -1.264e-05 -6.74e-05 -3.32e-05 -5.54e-06 -3.46e-06 -4.9e-06
-1.46e-05 -1.92e-05 2e-07 -1.3e-06 3.004e-05 -1.4e-05 -2.8e-05 -2.13e-05
-3.8e-06 9.5e-07 -6e-08 -5.4e-07 -1.25e-05 -3.04e-06 -9e-07 -7.03e-06
9.5e-07 -6e-06 -3.34e-06 7.45e-06 1.6e-06 1.27e-05 -2.15e-06 -1.8e-06
-1.484e-05 -5.54e-06 1.633e-05 -6.825e-05 7.15e-06 1.03e-05 -1.03e-05 -2.25e-05
1.34e-05 1.526e-05 2.4e-06 -1.25e-05 9.54e-06 4.1e-06 -7.15e-06 -3.3e-06
2.15e-06 -2e-06 2.74e-06 -6.7e-06 -4.7e-06 -6.5e-06 -5.2e-06 -1.29e-05
-1.76e-05 -5.4e-07 -2.3e-06 8e-07 5.36e-06 5.4e-06 1.156e-05 -1.51e-05
-1.13e-05 -4.95e-06 -1.806e-05 -7.87e-06 1.526e-05 -6.4e-06 9.5e-07 -2.6e-06
-5.8e-06 1.4e-06 5.36e-06 2.164e-05 2.15e-06 1.17e-05 -1.23e-05 -1.806e-05
-2.92e-05 -1.32e-05 -2.4e-07 1.31e-05 8.05e-06 -8.7e-06 -1.3e-06 -1.97e-05
5e-07 -3.9e-06 1.06e-05 -4e-06 5e-07 -5.2e-06 1.01e-05 1.45e-05
2.86e-05 1.37e-05 -1.764e-05 -2.843e-05 -3.85e-05 -5.4e-06 -6.7e-06 1.69e-05
-9.8e-06 -9.2e-06 -1.78e-05 -6.74e-06 -8.94e-06 -1.436e-05 -2.74e-05 -5e-06
-2.7e-06 -7.45e-06 -1.746e-05 -2.605e-05 1.377e-05 4.7e-06 7.5e-06 -1.39e-05
-8.46e-06 3.46e-06 -3.254e-05 -1.156e-05 5.4e-07 -6.26e-06 -4.23e-06 -5.955e-05
-3.88e-05 -1.25e-05 -1.25e-05 1.174e-05 -2.15e-05 1.7e-06 -2.605e-05 -8.3e-06
-1.69e-05 -4.1e-06 -1.335e-05 -8.3e-06 3.82e-05 1.18e-05 -1.77e-05 -2.03e-05
-2.867e-05 6.3e-06 1.84e-05 -2.784e-05 -0.0001099 -9.97e-05 -0.001338 -0.01247
-1.633e-05 0.1043 0.1571 -0.000915 -0.00276 -0.2876 -0.03583 0.0005016
0.123 0.00723 0.0007734 -0.000827 -0.000805 -0.03256 -0.013214 -0.000766
3.11e-05 0.0005403 0.134 0.02126 1.01e-05 -0.002144 -0.0978 -0.0003238
-2.57e-05 -2.354e-05 1.5e-05 0.06604 0.0002687 -0.0001713 -0.02927 -0.1318
-0.000852 0.001422 0.02774 -6.324e-05 -0.03342 0.0009017 0.00393 -0.06415
-0.002459 5.686e-05 -0.0002106 -0.002476 -0.000488 0.0688 -0.001999 -0.1884
-0.2291 -0.001149 0.0002825 0.04636 0.1533 0.0004575 -0.000512 -0.0249
-0.1348 -0.0001628 -4.476e-05 0.006733 -1.78e-05 -0.00943 -8.97e-05 1.365e-05
0.03284 -5e-07 -0.0004077 -0.002348 -0.0001553 0.006325 4.65e-06 -0.0001224
-0.03452 -0.00787 -0.000251 -4.965e-05 -6.25e-05 0.000549 0.003906 2.503e-05
-0.0002308 -6.72e-05 -0.02242 -3.546e-05 -3.9e-06 0.003696 0.0002644 -7.504e-05
