scenes/airsas/bunny_20k/example_outputs/deconvolved_measurements/numpy/weights_trans_37440_37799.npy (npy, 437888 bytes, 1 tensors)

array f2 [360, 608]
0	0x8109	-1.58e-05
1	0x0026	2.26e-06
2	0x0024	2.15e-06
3	0x808a	-8.2e-06
4	0x80b6	-1.085e-05
5	0x8024	-2.15e-06
6	0x80bc	-1.12e-05
7	0x801b	-1.6e-06
8	0x804b	-4.5e-06
9	0x800f	-9e-07
10	0x80da	-1.3e-05
11	0x005f	5.66e-06
12	0x8045	-4.1e-06
13	0x81b0	-2.575e-05
14	0x005c	5.5e-06
15	0x0071	6.74e-06
16	0x8099	-9.1e-06
17	0x80b5	-1.08e-05
18	0x8221	-3.25e-05
19	0x0062	5.84e-06
20	0x00f4	1.454e-05
21	0x816d	-2.176e-05
22	0x80ec	-1.407e-05
23	0x815c	-2.074e-05
24	0x0010	9.5e-07
25	0x809d	-9.36e-06
26	0x80f1	-1.436e-05
27	0x8184	-2.31e-05
28	0x8104	-1.55e-05
29	0x0097	9e-06
30	0x80c0	-1.144e-05
31	0x81d8	-2.813e-05
32	0x808c	-8.34e-06
33	0x006e	6.56e-06
34	0x80bd	-1.127e-05
35	0x80f0	-1.43e-05
36	0x810f	-1.615e-05
37	0x00b3	1.067e-05
38	0x806d	-6.5e-06
39	0x8128	-1.764e-05
40	0x80b9	-1.1e-05
41	0x800d	-8e-07
42	0x807e	-7.5e-06
43	0x80fe	-1.514e-05
44	0x811b	-1.687e-05
45	0x80aa	-1.013e-05
46	0x80a2	-9.66e-06
47	0x80f7	-1.47e-05
48	0x8083	-7.8e-06
49	0x8123	-1.734e-05
50	0x80d1	-1.246e-05
51	0x8154	-2.027e-05
52	0x8049	-4.35e-06
53	0x81a4	-2.503e-05
54	0x802f	-2.8e-06
55	0x80d9	-1.293e-05
56	0x813c	-1.884e-05
57	0x80aa	-1.013e-05
58	0x804f	-4.7e-06
59	0x813f	-1.9e-05
60	0x80e3	-1.353e-05
61	0x809f	-9.5e-06
62	0x811f	-1.71e-05
63	0x8056	-5.1e-06
64	0x816e	-2.18e-05
65	0x8017	-1.4e-06
66	0x8091	-8.64e-06
67	0x80ac	-1.025e-05
68	0x801b	-1.6e-06
69	0x80a4	-9.8e-06
70	0x80da	-1.3e-05
71	0x804d	-4.6e-06
72	0x80e3	-1.353e-05
73	0x8095	-8.9e-06
74	0x808f	-8.5e-06
75	0x8042	-3.93e-06
76	0x8036	-3.2e-06
77	0x8055	-5.07e-06
78	0x80bb	-1.115e-05
79	0x802a	-2.5e-06
80	0x80ac	-1.025e-05
81	0x0001	6e-08
82	0x806b	-6.4e-06
83	0x80ab	-1.02e-05
84	0x80ac	-1.025e-05
85	0x8083	-7.8e-06
86	0x80be	-1.13e-05
87	0x8054	-5e-06
88	0x8105	-1.556e-05
89	0x80e5	-1.365e-05
90	0x80ce	-1.23e-05
91	0x810b	-1.59e-05
92	0x8068	-6.2e-06
93	0x8143	-1.925e-05
94	0x802a	-2.5e-06
95	0x80df	-1.33e-05
96	0x8096	-8.94e-06
97	0x8027	-2.3e-06
98	0x80f2	-1.44e-05
99	0x8085	-7.9e-06
100	0x80f5	-1.46e-05
101	0x80c3	-1.16e-05
102	0x80bd	-1.127e-05
103	0x80bc	-1.12e-05
104	0x809a	-9.2e-06
105	0x80be	-1.13e-05
106	0x8051	-4.8e-06
107	0x80bb	-1.115e-05
108	0x806a	-6.3e-06
109	0x808f	-8.5e-06
110	0x8034	-3.1e-06
111	0x806a	-6.3e-06
112	0x80af	-1.043e-05
113	0x8067	-6.14e-06
114	0x80a2	-9.66e-06
115	0x8069	-6.26e-06
116	0x8048	-4.3e-06
117	0x8060	-5.7e-06
118	0x8097	-9e-06
119	0x80db	-1.305e-05
120	0x8117	-1.66e-05
121	0x80d3	-1.26e-05
122	0x810c	-1.6e-05
123	0x800b	-6.6e-07
124	0x8073	-6.85e-06
125	0x8046	-4.2e-06
126	0x80b9	-1.1e-05
127	0x8042	-3.93e-06
128	0x8074	-6.9e-06
129	0x0033	3.04e-06
130	0x80f1	-1.436e-05
131	0x80ef	-1.425e-05
132	0x810e	-1.61e-05
133	0x8072	-6.8e-06
134	0x8018	-1.43e-06
135	0x0017	1.4e-06
136	0x8045	-4.1e-06
137	0x80d2	-1.25e-05
138	0x80cb	-1.21e-05
139	0x8077	-7.1e-06
140	0x8013	-1.13e-06
141	0x8034	-3.1e-06
142	0x804b	-4.5e-06
143	0x809b	-9.24e-06
144	0x0016	1.3e-06
145	0x8023	-2.1e-06
146	0x0099	9.1e-06
147	0x8066	-6.1e-06
148	0x80af	-1.043e-05
149	0x815c	-2.074e-05
150	0x811b	-1.687e-05
151	0x8081	-7.7e-06
152	0x80c0	-1.144e-05
153	0x80cb	-1.21e-05
154	0x80b1	-1.055e-05
155	0x80f5	-1.46e-05
156	0x80c8	-1.19e-05
157	0x8084	-7.87e-06
158	0x8068	-6.2e-06
159	0x8076	-7.03e-06
160	0x80ab	-1.02e-05
161	0x80de	-1.323e-05
162	0x8115	-1.65e-05
163	0x8030	-2.86e-06
164	0x80d8	-1.29e-05
165	0x0021	1.97e-06
166	0x8046	-4.2e-06
167	0x808b	-8.3e-06
168	0x80b5	-1.08e-05
169	0x8013	-1.13e-06
170	0x80bd	-1.127e-05
171	0x8137	-1.854e-05
172	0x8128	-1.764e-05
173	0x808e	-8.46e-06
174	0x807b	-7.33e-06
175	0x8163	-2.116e-05
176	0x828f	-3.904e-05
177	0x83bd	-5.704e-05
178	0x8052	-4.9e-06
179	0x00a1	9.6e-06
180	0x050d	7.707e-05
181	0x8042	-3.93e-06
182	0x8130	-1.81e-05
183	0x8960	-0.000164
184	0x8850	-0.0001316
185	0x8875	-0.000136
186	0x023e	3.42e-05
187	0x0290	3.91e-05
188	0x8037	-3.3e-06
189	0x867c	-9.894e-05
190	0x8add	-0.0002095
191	0x8113	-1.64e-05
192	0x01b4	2.6e-05
193	0x0c67	0.0002687
194	0x808c	-8.34e-06
195	0x8316	-4.71e-05
196	0x8e41	-0.0003817
197	0x847c	-6.84e-05
198	0x0005	3e-07
199	0x0d28	0.0003147
200	0x083d	0.0001293
201	0x8005	-3e-07
202	0x893b	-0.0001596
203	0x889f	-0.000141
204	0x0094	8.8e-06
205	0x000c	7e-07
206	0x004e	4.65e-06
207	0x835a	-5.114e-05
208	0x817f	-2.28e-05
209	0x80d5	-1.27e-05
210	0x809a	-9.2e-06
211	0x01ff	3.046e-05
212	0x0179	2.25e-05
213	0x83de	-5.9e-05
214	0x8883	-0.0001377
215	0x8a68	-0.0001955
216	0x828f	-3.904e-05
217	0x0269	3.68e-05
218	0x0077	7.1e-06
219	0x86d1	-0.000104
220	0x876c	-0.00011325
221	0x80b2	-1.06e-05
222	0x01f9	3.01e-05
223	0x00c1	1.15e-05
224	0x8448	-6.53e-05
225	0x81ae	-2.563e-05
226	0x802c	-2.6e-06
227	0x00ef	1.425e-05
228	0x80a9	-1.01e-05
229	0x8088	-8.1e-06
230	0x80a6	-9.9e-06
231	0x001b	1.6e-06
232	0x8202	-3.064e-05
233	0x80b1	-1.055e-05
234	0x81e0	-2.86e-05
235	0x8522	-7.83e-05
236	0x8072	-6.8e-06
237	0x0111	1.63e-05
238	0x81a6	-2.515e-05
239	0x8125	-1.746e-05
240	0x0a58	0.0001936
241	0x806d	-6.5e-06
242	0x810e	-1.61e-05
243	0x95a5	-0.001378
244	0x8993	-0.0001701
245	0x1175	0.000666
246	0x060e	9.24e-05
247	0x8364	-5.174e-05
248	0x9f14	-0.006912
249	0x9c6c	-0.00432
250	0x8151	-2.01e-05
251	0x000d	8e-07
252	0x2893	0.03574
253	0x0f01	0.0004275
254	0x917c	-0.0006695
255	0xa83b	-0.03305
