scenes/airsas/bunny_20k/example_outputs/deconvolved_measurements/numpy/weights_trans_16920_17279.npy (npy, 437888 bytes, 1 tensors)

array f2 [360, 608]
00000000: 3e00 1b0e d900 ce81 2b01 3601 1480 0001
00000010: 4e0c ef00 ad84 c70c 3380 6e82 7c00 e70e
00000020: dd81 24a8 9da8 7089 6003 6f2b 230b d301
00000030: ae01 0900 1501 9800 c500 1601 c803 a801
00000040: 5d06 bc21 cd01 2f90 59a5 6001 c002 9c29
00000050: 5b1c 6600 0893 d981 8201 7d09 5701 4502
00000060: f583 3f83 6e80 ef06 c71d 4722 f801 7c83
00000070: 8393 3d80 1b02 0903 8580 cc80 f000 e101
00000080: 3d00 fa01 d901 0703 a900 3182 0881 5202
00000090: cf00 9102 8200 2d80 5800 9801 8f01 a000
000000a0: d580 f400 b601 5900 4a00 3c03 ee00 dc80
000000b0: ba81 8100 3580 7600 0e80 f600 b501 bf00
000000c0: 1981 7800 7500 2600 0001 7203 4100 8700
000000d0: 8182 0c80 3300 a501 8000 e800 0580 4900
000000e0: 4080 9b01 3601 5580 0f01 e301 b505 5a02
000000f0: d601 1682 5380 6b01 e004 8103 8181 f086
00000100: b380 5002 3708 3902 b186 0601 b201 1f09
00000110: 3801 0a81 e68d 1480 6600 e603 c801 0600
00000120: 7185 ad00 0480 0680 1702 7907 6a01 a800
00000130: de81 a700 6201 9202 dd00 7700 5000 3980
00000140: eb00 1b02 6a00 7780 0202 8900 f600 0180
00000150: 6c03 5a00 0584 8b00 1f02 2005 0a08 3503
00000160: 4606 80a4 159f d905 190c 3730 601d 3f8c
00000170: 08a7 f5b0 5e97 e889 582f ca2f 0714 9404
00000180: faac 208f f30d 7423 202a bc03 390c d18a
00000190: 4dae c6a7 e494 ce21 0f30 051b aa05 cea7
000001a0: 5da9 da06 3080 e290 2a00 2706 ec02 e902
000001b0: 4303 7a01 5c84 5bad bfaf 8600 0420 b42c
000001c0: 3312 76a5 b78d ff92 5413 a32d 3617 080f
000001d0: a5ac 37b3 b2a8 8612 0b18 7032 f62b 6b0e
000001e0: a295 00b1 f9a0 4a95 7b1b 702b 7689 e502
000001f0: b7a4 6896 7f03 3d07 e509 c624 b901 7903
3.7e-06 0.0003726 1.293e-05 -2.754e-05 1.78e-05 1.85e-05 -1.2e-06 1.526e-05
0.0002627 1.425e-05 -7.135e-05 0.0002916 -3.04e-06 -3.71e-05 7.4e-06 0.0004213
-2.843e-05 -0.03235 -0.03604 -0.0001659 5.15e-05 0.05807 0.0002178 2.784e-05
2.563e-05 5.4e-07 1.65e-05 9.06e-06 1.174e-05 1.657e-05 5.77e-05 2.53e-05
9.71e-05 0.0112 2.75e-05 -0.0005107 -0.02089 2.1e-05 4.196e-05 0.04382
0.004253 6.1e-06 -0.0008583 -2.82e-05 2.3e-05 0.0001675 2.044e-05 3.463e-05
-6.04e-05 -4.953e-05 -6.56e-06 0.0001058 0.005642 0.01226 3.004e-05 -5.317e-05
-0.000917 -3.64e-06 3.21e-05 4.63e-05 -7.9e-06 -1.216e-05 1.43e-05 2.867e-05
3.64e-06 3.016e-05 2.82e-05 4.62e-05 1.01e-05 -3.344e-05 -1.574e-05 3.54e-05
1.234e-05 3.916e-05 7.75e-06 -2.7e-06 5.25e-06 2.43e-05 2.38e-05 9.54e-06
-1.27e-05 1.454e-05 2.61e-05 5.3e-06 4.4e-06 4.935e-05 1.42e-05 -1.31e-05
-2.635e-05 7.7e-06 -3.16e-06 7.03e-06 -8.3e-07 1.466e-05 2.605e-05 1.14e-05
-1.675e-05 7.15e-06 7e-06 2.26e-06 1.526e-05 5.26e-05 3.9e-06 8.05e-06
-3.82e-05 -7e-07 3.04e-06 2.51e-05 7.6e-06 1.38e-05 -3e-07 4.35e-06
-3.8e-06 2.45e-05 1.85e-05 -5.07e-06 1.615e-05 2.88e-05 8.71e-05 3.59e-05
2.8e-05 -3.18e-05 -4.95e-06 2.164e-05 7.44e-05 5.347e-05 -2.295e-05 -0.00010586
-1.067e-05 3.53e-05 0.0001286 3.39e-05 -0.0001021 1.56e-05 2.587e-05 0.0001563
1.86e-05 -1.585e-05 -0.00036 -1.2e-06 6.1e-06 5.95e-05 2.72e-05 3.6e-07
-8.3e-05 1.03e-05 -2.4e-07 -3.6e-07 3.19e-05 0.000114 2.16e-05 1e-05
-2.85e-05 9.95e-06 2.11e-05 3.92e-05 1.32e-05 7.1e-06 4.77e-06 -3.4e-06
1.4e-05 3.21e-05 6.3e-06 -7.1e-06 3.064e-05 8.17e-06 1.466e-05 -6e-08
5.22e-05 5.36e-06 -6.133e-05 8.3e-06 3.237e-05 7.82e-05 0.0001233 4.894e-05
9.57e-05 -0.01758 -0.006916 8.92e-05 0.00025 0.1317 0.00525 -0.0002592
-0.02747 -0.1549 -0.001799 -0.0001802 0.11475 0.1217 0.000983 6.986e-05
-0.07776 -0.0004349 0.000363 0.01456 0.04785 5.7e-05 0.0002577 -0.000208
-0.09845 -0.03036 -0.001194 0.01134 0.1268 0.003428 8.64e-05 -0.03049
-0.0419 0.00010455 -2.86e-06 -0.000596 2.5e-06 9.39e-05 4.46e-05 4.44e-05
4.977e-05 2.253e-05 -6.65e-05 -0.0837 -0.12103 8e-06 0.00784 0.0735
0.0007567 -0.02133 -0.0003488 -0.000854 0.0008945 0.0881 0.0017605 0.0004292
-0.0726 -0.2255 -0.03668 0.0007963 0.001974 0.2012 0.0622 0.0003917
-0.001375 -0.1562 -0.00971 -0.001291 0.003653 0.0581 -0.0001667 4.417e-05
-0.01842 -0.001564 5.335e-05 0.00011045 0.0001799 0.01865 2.63e-05 5.3e-05
