scenes/airsas/bunny_20k/example_outputs/deconvolved_measurements/numpy/weights_trans_13680_14039.npy (npy, 437888 bytes, 1 tensors)

array f2 [360, 608]
0	0x8047	-4.23e-06
1	0x015c	2.074e-05
2	0x0107	1.57e-05
3	0x0087	8.05e-06
4	0x0040	3.8e-06
5	0x04d3	7.36e-05
6	0x01a0	2.48e-05
7	0x014d	1.985e-05
8	0x041f	6.29e-05
9	0x9ae4	-0.003365
10	0xa4fa	-0.01944
11	0x029c	3.98e-05
12	0x0fa7	0.000467
13	0x25e7	0.02306
14	0x8209	-3.105e-05
15	0x831a	-4.73e-05
16	0xa6bc	-0.0263
17	0x9854	-0.002113
18	0x80d9	-1.293e-05
19	0x1cd4	0.004715
20	0x168d	0.001599
21	0x8193	-2.4e-05
22	0x810d	-1.603e-05
23	0x80b6	-1.085e-05
24	0x0090	8.6e-06
25	0x00a1	9.6e-06
26	0x00ed	1.41e-05
27	0x011a	1.68e-05
28	0x0152	2.015e-05
29	0x00a9	1.01e-05
30	0x84d3	-7.36e-05
31	0x00fa	1.49e-05
32	0x00b5	1.08e-05
33	0x02b1	4.107e-05
34	0x0050	4.77e-06
35	0x81ad	-2.56e-05
36	0x0066	6.1e-06
37	0x008a	8.2e-06
38	0x009f	9.5e-06
39	0x003a	3.46e-06
40	0x01ed	2.94e-05
41	0x0092	8.7e-06
42	0x0133	1.83e-05
43	0x011b	1.687e-05
44	0x0098	9.06e-06
45	0x01ca	2.73e-05
46	0x02ac	4.077e-05
47	0x01bd	2.65e-05
48	0x0067	6.14e-06
49	0x00a8	1e-05
50	0x0155	2.03e-05
51	0x011a	1.68e-05
52	0x016a	2.16e-05
53	0x0160	2.1e-05
54	0x803f	-3.76e-06
55	0x0118	1.67e-05
56	0x0128	1.764e-05
57	0x015c	2.074e-05
58	0x00e4	1.36e-05
59	0x0131	1.82e-05
60	0x0121	1.72e-05
61	0x0064	5.96e-06
62	0x0163	2.116e-05
63	0x014a	1.967e-05
64	0x0040	3.8e-06
65	0x00be	1.13e-05
66	0x00eb	1.4e-05
67	0x00e8	1.38e-05
68	0x00c1	1.15e-05
69	0x0156	2.04e-05
70	0x011b	1.687e-05
71	0x00b5	1.08e-05
72	0x0100	1.526e-05
73	0x0120	1.717e-05
74	0x009a	9.2e-06
75	0x0082	7.75e-06
76	0x0075	7e-06
77	0x0135	1.84e-05
78	0x008f	8.5e-06
79	0x00b4	1.07e-05
80	0x01b6	2.61e-05
81	0x00e3	1.353e-05
82	0x015b	2.07e-05
83	0x017a	2.253e-05
84	0x015a	2.06e-05
85	0x0059	5.3e-06
86	0x01ef	2.95e-05
87	0x8032	-3e-06
88	0x0170	2.193e-05
89	0x00fb	1.496e-05
90	0x008c	8.34e-06
91	0x00f7	1.47e-05
92	0x0130	1.81e-05
93	0x80be	-1.13e-05
94	0x013a	1.87e-05
95	0x003e	3.7e-06
96	0x8004	-2.4e-07
97	0x00de	1.323e-05
98	0x0159	2.056e-05
99	0x0140	1.91e-05
100	0x0109	1.58e-05
101	0x00ac	1.025e-05
102	0x0092	8.7e-06
103	0x00dc	1.31e-05
104	0x009e	9.4e-06
105	0x007e	7.5e-06
106	0x0197	2.426e-05
107	0x001f	1.85e-06
108	0x0094	8.8e-06
109	0x00cd	1.22e-05
110	0x0129	1.77e-05
111	0x0092	8.7e-06
112	0x0108	1.574e-05
113	0x0129	1.77e-05
114	0x8009	-5.4e-07
115	0x00cc	1.216e-05
116	0x0117	1.66e-05
117	0x00ad	1.03e-05
118	0x0143	1.925e-05
119	0x011e	1.705e-05
120	0x0122	1.73e-05
121	0x00e7	1.377e-05
122	0x012d	1.794e-05
123	0x0062	5.84e-06
124	0x00fa	1.49e-05
125	0x009f	9.5e-06
126	0x0109	1.58e-05
127	0x0162	2.11e-05
128	0x007d	7.45e-06
129	0x8027	-2.3e-06
130	0x00be	1.13e-05
131	0x80f3	-1.45e-05
132	0x024a	3.49e-05
133	0x00ec	1.407e-05
134	0x00ee	1.42e-05
135	0x007f	7.57e-06
136	0x008c	8.34e-06
137	0x007b	7.33e-06
138	0x0245	3.463e-05
139	0x003f	3.76e-06
140	0x01b7	2.617e-05
141	0x00b6	1.085e-05
142	0x00ed	1.41e-05
143	0x0123	1.734e-05
144	0x0102	1.54e-05
145	0x00b5	1.08e-05
146	0x00c9	1.2e-05
147	0x00d4	1.264e-05
148	0x0052	4.9e-06
149	0x00b4	1.07e-05
150	0x00f2	1.44e-05
151	0x0025	2.2e-06
152	0x0055	5.07e-06
153	0x00d3	1.26e-05
154	0x00e0	1.335e-05
155	0x0211	3.153e-05
156	0x00a6	9.9e-06
157	0x8022	-2e-06
158	0x00f0	1.43e-05
159	0x8137	-1.854e-05
160	0x00e3	1.353e-05
161	0x00bd	1.127e-05
162	0x0146	1.943e-05
163	0x0051	4.8e-06
164	0x0090	8.6e-06
165	0x0073	6.85e-06
166	0x01fb	3.02e-05
167	0x00ef	1.425e-05
168	0x8084	-7.87e-06
169	0x020e	3.135e-05
170	0x8ca5	-0.0002835
171	0x9454	-0.001057
172	0x0965	0.0001646
173	0x1438	0.00103
174	0x3058	0.1357
175	0x2eac	0.10425
176	0x14fb	0.001216
177	0xa0ca	-0.00935
178	0xb1e4	-0.1841
179	0x87f4	-0.00012136
180	0x1acd	0.00332
181	0x2d1d	0.0799
182	0x3257	0.1981
183	0x18fb	0.002432
184	0x0ed0	0.0004158
185	0xa81b	-0.03207
186	0xa5b5	-0.0223
187	0x0e4b	0.000384
188	0x138b	0.000921
189	0x2802	0.0313
190	0x0861	0.0001336
191	0x91a0	-0.0006866
192	0x8055	-5.07e-06
193	0x06c0	0.000103
194	0x2be9	0.0618
195	0x057f	8.386e-05
196	0x0d9d	0.0003426
197	0x9df9	-0.005833
198	0xa4b3	-0.01836
199	0x02b4	4.125e-05
200	0x04f8	7.58e-05
201	0x069f	0.00010103
202	0xa840	-0.0332
203	0x07d2	0.0001193
204	0x2692	0.02567
205	0x18e6	0.002392
206	0x0129	1.77e-05
207	0xaedb	-0.1071
208	0x117e	0.0006704
209	0x2775	0.02913
210	0x1c78	0.004364
211	0x808a	-8.2e-06
212	0x80c5	-1.174e-05
213	0x94c3	-0.001163
214	0x82a4	-4.03e-05
215	0x00f8	1.48e-05
216	0x06c3	0.0001032
217	0x03d3	5.835e-05
218	0x00c6	1.18e-05
219	0x1b4d	0.003565
220	0x2867	0.0344
221	0x0f6b	0.0004528
222	0xaeb7	-0.1049
223	0xb1c0	-0.1797
224	0xb049	-0.1339
225	0x1232	0.0007563
226	0x1a43	0.003057
227	0x30d9	0.1515
228	0x2ef3	0.1086
229	0x130f	0.0008616
230	0x9481	-0.0011
231	0xb048	-0.1338
232	0xae04	-0.094
233	0x9882	-0.002201
234	0x12a5	0.000811
235	0x2b0d	0.05508
236	0x089c	0.0001407
237	0x01ad	2.56e-05
238	0xa763	-0.02885
239	0xa326	-0.01396
240	0x00b9	1.1e-05
241	0x033e	4.95e-05
242	0x01fe	3.04e-05
243	0x0134	1.836e-05
244	0x002a	2.5e-06
245	0x00c5	1.174e-05
246	0x00d8	1.29e-05
247	0x9c1c	-0.004013
248	0xa5ca	-0.02261
249	0x8159	-2.056e-05
250	0x8031	-2.9e-06
251	0x072f	0.0001096
252	0x1df1	0.005802
253	0x25a5	0.02205
254	0x0130	1.81e-05
255	0x8043	-4e-06
