scenes/airsas/bunny_20k/example_outputs/deconvolved_measurements/numpy/weights_trans_22680_23039.npy (npy, 437888 bytes, 1 tensors)

array f2 [360, 608]
00000000: 6100 6100 7c00 5c00 7200 a000 7300 8100
00000010: 0d01 9a00 9900 c900 9b00 9200 c100 7600
00000020: d600 9000 c300 b400 bd00 9500 5f00 4400
00000030: 5500 5d00 5a00 1500 8500 1300 5700 3f00
00000040: 0e80 5800 2680 4c00 0880 2f00 1b00 3f00
00000050: 2100 2a00 4500 5900 3500 5300 1800 2c00
00000060: 0e80 2c00 4300 6100 2900 3700 2500 1480
00000070: 1780 1180 8880 2480 7b80 1500 0b80 5200
00000080: 0600 8b00 3000 5a00 5700 2300 5500 1400
00000090: 5800 5600 7300 6d00 8900 a400 a000 7700
000000a0: 1a00 4500 1600 0f00 1700 2480 3000 4700
000000b0: 1d80 5500 4d00 8100 4e00 3500 4e00 1f00
000000c0: 1c00 1980 3380 1b00 1400 2f00 4b00 7800
000000d0: 2800 5d00 1400 4c00 4200 5b00 7900 1900
000000e0: 1a80 0180 0180 0580 7800 4800 4600 6700
000000f0: 1c80 8f00 6900 5e00 5000 3100 2500 1a80
00000100: 5d00 8400 1d00 7700 8600 a000 1e01 6c00
00000110: 6a00 4a00 0700 0700 6900 3c00 2100 8100
00000120: 2900 3a00 4880 2e80 7280 1b00 7100 7a80
00000130: 3800 3980 3f00 3200 2080 1e00 8800 1780
00000140: 1700 0880 7800 2e00 6500 6e80 c100 7200
00000150: b900 3e00 7100 7f00 1000 4b00 2480 4d00
00000160: 4700 1900 6600 6900 5b00 8600 b501 1e80
00000170: ab00 3600 3600 9780 9700 4b01 2700 3f80
00000180: b59e 20a3 5e06 5e18 062d 0c0b c38d 4eab
00000190: 2a04 7a08 6981 17a2 57a2 2401 d524 6705
000001a0: 4502 6f82 f884 3980 4d02 3700 b900 4201
000001b0: a980 3f01 3c80 ac94 9fa4 cb00 9988 122b
000001c0: 5e2e cf08 7f94 10ad 26ad 8a94 c682 5f04
000001d0: aa29 6480 8c83 1ea7 1aa8 1500 c102 af23
000001e0: b300 e600 6b9f 6eae fd8d 9103 a204 5f2d
000001f0: 7f1a 3280 e18c 14a4 37ab 93a3 6f00 aa01
5.8e-06 5.8e-06 7.4e-06 5.5e-06 6.8e-06 9.54e-06 6.85e-06 7.7e-06
1.603e-05 9.2e-06 9.1e-06 1.2e-05 9.24e-06 8.7e-06 1.15e-05 7.03e-06
1.276e-05 8.6e-06 1.16e-05 1.07e-05 1.127e-05 8.9e-06 5.66e-06 4.05e-06
5.07e-06 5.54e-06 5.36e-06 1.25e-06 7.9e-06 1.13e-06 5.2e-06 3.76e-06
-8.3e-07 5.25e-06 -2.26e-06 4.53e-06 -5e-07 2.8e-06 1.6e-06 3.76e-06
1.97e-06 2.5e-06 4.1e-06 5.3e-06 3.16e-06 4.95e-06 1.43e-06 2.6e-06
-8.3e-07 2.6e-06 4e-06 5.8e-06 2.44e-06 3.3e-06 2.2e-06 -1.2e-06
-1.4e-06 -1e-06 -8.1e-06 -2.15e-06 -7.33e-06 1.25e-06 -6.6e-07 4.9e-06
3.6e-07 8.3e-06 2.86e-06 5.36e-06 5.2e-06 2.1e-06 5.07e-06 1.2e-06
5.25e-06 5.1e-06 6.85e-06 6.5e-06 8.17e-06 9.8e-06 9.54e-06 7.1e-06
1.55e-06 4.1e-06 1.3e-06 9e-07 1.4e-06 -2.15e-06 2.86e-06 4.23e-06
-1.7e-06 5.07e-06 4.6e-06 7.7e-06 4.65e-06 3.16e-06 4.65e-06 1.85e-06
1.67e-06 -1.5e-06 -3.04e-06 1.6e-06 1.2e-06 2.8e-06 4.5e-06 7.15e-06
2.4e-06 5.54e-06 1.2e-06 4.53e-06 3.93e-06 5.4e-06 7.2e-06 1.5e-06
-1.55e-06 -6e-08 -6e-08 -3e-07 7.15e-06 4.3e-06 4.2e-06 6.14e-06
-1.67e-06 8.5e-06 6.26e-06 5.6e-06 4.77e-06 2.9e-06 2.2e-06 -1.55e-06
5.54e-06 7.87e-06 1.7e-06 7.1e-06 8e-06 9.54e-06 1.705e-05 6.44e-06
6.3e-06 4.4e-06 4e-07 4e-07 6.26e-06 3.6e-06 1.97e-06 7.7e-06
2.44e-06 3.46e-06 -4.3e-06 -2.74e-06 -6.8e-06 1.6e-06 6.74e-06 -7.3e-06
3.34e-06 -3.4e-06 3.76e-06 3e-06 -1.9e-06 1.8e-06 8.1e-06 -1.4e-06
1.4e-06 -5e-07 7.15e-06 2.74e-06 6e-06 -6.56e-06 1.15e-05 6.8e-06
1.1e-05 3.7e-06 6.74e-06 7.57e-06 9.5e-07 4.5e-06 -2.15e-06 4.6e-06
4.23e-06 1.5e-06 6.1e-06 6.26e-06 5.4e-06 8e-06 2.605e-05 -1.8e-06
1.02e-05 3.2e-06 3.2e-06 -9e-06 9e-06 1.97e-05 2.3e-06 -3.76e-06
-0.00655 -0.013916 9.716e-05 0.002132 0.0785 0.000215 -0.0003517 -0.05707
6.354e-05 0.0001366 -2.15e-05 -0.011894 -0.01238 1.74e-05 0.01888 8.243e-05
3.463e-05 -3.713e-05 -7.58e-05 -3.4e-06 3.51e-05 3.3e-06 1.1e-05 1.92e-05
-1.01e-05 1.9e-05 -3.6e-06 -0.001141 -0.01805 1.21e-05 -0.0001403 0.05524
0.0995 0.0001467 -0.001098 -0.0791 -0.08044 -0.001108 -4.23e-05 6.67e-05
0.04425 -5.96e-06 -5.41e-05 -0.0278 -0.03204 1.25e-06 4.2e-05 0.01501
1.067e-05 1.37e-05 -0.007244 -0.10046 -0.0003655 5.44e-05 7.07e-05 0.0839
0.003172 -3e-06 -0.0002978 -0.01593 -0.05637 -0.01479 6.6e-06 2.54e-05
