scenes/airsas/bunny_20k/example_outputs/deconvolved_measurements/numpy/weights_trans_14400_14759.npy (npy, 437888 bytes, 1 tensors)

array f2 [360, 608]
00000000: 2700 6328 1c00 5180 8780 6a80 6d01 7600
00000010: 8081 5086 c800 a010 ad11 7f04 4680 609c
00000020: e3a2 3380 a720 d62a ee18 7f06 a49d 268c
00000030: 1680 821d ec80 4e00 0300 4d80 ad02 eb02
00000040: b080 c880 7e80 d981 e28f 4582 290e 6901
00000050: 6000 5081 c680 c180 9180 f702 7a02 be80
00000060: 138a f786 7702 2705 2804 8081 1881 1880
00000070: e400 7e0e 3a81 0986 1d82 cd03 6d02 0b02
00000080: 5288 2d86 ef00 ff03 3380 6282 8d82 ec80
00000090: 0701 9282 3683 2280 5300 2203 0e03 b600
000000a0: ed00 ff05 8480 a582 4a81 e100 2601 7580
000000b0: 5a80 3480 7502 5281 7e82 0800 4302 d101
000000c0: bf00 f982 a402 9d02 0780 9301 f505 9880
000000d0: da80 0c82 4b01 7200 b400 8100 5a81 4689
000000e0: b480 8200 8300 3201 6d81 7583 5482 1b02
000000f0: 0b01 a601 fb80 c980 4f83 5482 2881 5081
00000100: 6001 2200 7f00 cb82 c780 3d80 fc01 f100
00000110: 7300 a900 a281 5183 7d82 8c00 7305 dc01
00000120: 3b81 9080 fd80 1780 0d00 0c82 4f00 1980
00000130: 1182 3582 4e80 e801 3e00 0282 7182 6680
00000140: e780 0081 6580 fb80 ee83 2982 2b00 df80
00000150: f700 bc01 1e80 8683 32a0 5ba2 6387 2a2c
00000160: 0030 0e8f da94 2fb1 3eac 2299 8586 bc33
00000170: 4728 5793 9aa3 17ac f199 4b94 e990 b228
00000180: 8089 c0a8 76a5 cf89 e427 8128 848a 1490
00000190: a8a2 7f86 f086 7989 539d 8286 0324 7d29
000001a0: 3e8d 3da7 7f82 dd24 7384 97a5 3d83 c389
000001b0: 2c8d a385 af80 b282 3c01 5e15 ed27 5c03
000001c0: 08b1 e8af d1b1 f496 ba05 312e 9130 7189
000001d0: a691 25b0 1daf b28e 6d12 6d28 5603 8500
000001e0: 6dab b29d 608a f683 2180 e581 4809 b301
000001f0: c584 71a1 31a6 539d 3183 4380 7825 ee25
2.3e-06 0.03427 1.67e-06 -4.8e-06 -8.05e-06 -6.3e-06 2.176e-05 7.03e-06
-2.29e-05 -9.63e-05 1.19e-05 0.0005646 0.000693 6.86e-05 -4.2e-06 -0.004272
-0.01345 -3.04e-06 0.00909 0.0534 0.002407 9.91e-05 -0.00551 -0.0002532
-1.3e-06 0.00538 -1.407e-05 4.65e-06 2e-07 -4.6e-06 4.08e-05 4.45e-05
-1.05e-05 -1.19e-05 -7.5e-06 -2.82e-05 -0.0004811 -3.463e-05 0.000376 2.15e-05
5.7e-06 -2e-05 -1.18e-05 -1.15e-05 -8.64e-06 4.524e-05 3.78e-05 -1.13e-05
-0.0001854 -0.0001063 3.76e-05 7.86e-05 6.34e-05 -2.29e-05 -1.67e-05 -1.43e-06
1.36e-05 0.0003963 -1.87e-05 -9.21e-05 -3.225e-05 5.8e-05 3.7e-05 3.12e-05
-0.0001318 -9.423e-05 1.425e-05 6.1e-05 -3.04e-06 -3.636e-05 -3.89e-05 -1.407e-05
1.57e-05 -3.92e-05 -4.9e-05 -2e-06 4.95e-06 4.78e-05 4.66e-05 1.085e-05
1.41e-05 9.15e-05 -7.87e-06 -4.035e-05 -1.967e-05 1.34e-05 1.75e-05 -7e-06
-5.36e-06 -3.1e-06 3.75e-05 -2.015e-05 -3.8e-05 5e-07 3.45e-05 2.77e-05
1.14e-05 -4.536e-05 4.03e-05 3.99e-05 -4e-07 2.4e-05 9.09e-05 -9.06e-06
-1.3e-05 -3.123e-05 1.97e-05 6.8e-06 1.07e-05 7.7e-06 -2.06e-05 -0.0001609
-1.07e-05 7.75e-06 7.8e-06 1.824e-05 -2.176e-05 -5.275e-05 -3.55e-05 3.21e-05
1.59e-05 2.515e-05 -1.496e-05 -1.2e-05 -5.05e-05 -3.55e-05 -1.764e-05 -2e-05
2.1e-05 2e-06 7.57e-06 -4.26e-05 -1.186e-05 -3.64e-06 3.03e-05 1.436e-05
6.85e-06 1.01e-05 -2.49e-05 -5.06e-05 -3.797e-05 8.34e-06 8.315e-05 2.84e-05
-1.88e-05 -8.6e-06 -1.51e-05 -1.4e-06 8e-07 -3.123e-05 4.7e-06 -1.5e-06
-3.153e-05 -3.37e-05 -4.65e-06 2.91e-05 3.7e-06 -3.064e-05 -3.725e-05 -6.1e-06
-1.377e-05 -1.526e-05 -6e-06 -1.496e-05 -5.996e-05 -3.296e-05 2.56e-06 -1.33e-05
1.47e-05 2.646e-05 -1.8e-06 -5.376e-05 -0.008194 -0.01241 -0.0001127 0.06506
0.125 -0.0004306 -0.001184 -0.162 -0.0663 -0.002506 -9.95e-05 0.2417
0.03342 -0.000896 -0.01485 -0.0639 -0.002901 -0.001048 -0.0005994 0.03668
-0.0001678 -0.0371 -0.02133 -0.0001773 0.03082 0.0352 -0.0001988 -0.000498
-0.013 -9.91e-05 -0.00010586 -0.000167 -0.0052 -9.93e-05 0.01567 0.04288
-0.00032 -0.02827 -3.81e-05 0.019 -6.79e-05 -0.02184 -4.94e-05 -0.0001758
-0.0003157 -8.6e-05 -1.043e-05 -4.11e-05 1.884e-05 0.00131 0.03096 5.126e-05
-0.1572 -0.12354 -0.1818 -0.001698 8.74e-05 0.09674 0.1427 -0.000166
-0.0006895 -0.1295 -0.11115 -0.0004086 0.0007844 0.03458 5.09e-05 7.9e-06
-0.058 -0.00556 -0.0001945 -6.044e-05 -1.97e-06 -2.89e-05 0.0001612 2.59e-05
-7.28e-05 -0.01063 -0.02419 -0.0052 -4.87e-05 -4e-06 0.02136 0.02316
