scenes/airsas/bunny_20k/example_outputs/deconvolved_measurements/numpy/weights_trans_24480_24839.npy (npy, 437888 bytes, 1 tensors)

array f2 [360, 608]
1.43e-06 -5.8e-06 9.5e-06 -3e-06 4.7e-06 3.9e-06 9e-06 4.5e-06
1.085e-05 4.53e-06 1.26e-05 9.1e-06 3.1e-06 1.156e-05 2e-06 5.07e-06
9.5e-07 -1.6e-06 1.1e-06 6.6e-07 6e-08 1.85e-06 -1.7e-06 8.3e-06
-4e-07 3.46e-06 2.2e-06 1.85e-06 1.5e-06 -4.77e-06 5.1e-06 -1.09e-05
4.5e-06 -8.34e-06 4.35e-06 -2.8e-06 -1e-07 6.3e-06 7e-07 5.07e-06
6.14e-06 1.6e-06 2.5e-06 -1.43e-06 -3.9e-06 -9e-07 -8.94e-06 -1.4e-06
-8.6e-06 -2.15e-06 -1.3e-06 -1.67e-06 2.2e-06 3.5e-06 2.44e-06 8.7e-06
-1.4e-06 2.56e-06 -9.5e-07 -1.85e-06 -2.5e-06 -3.5e-06 -9e-07 -1.67e-06
3.2e-06 1.13e-06 7.57e-06 3.4e-06 9.7e-06 5.5e-06 5.3e-06 5.5e-06
5.4e-07 2.8e-06 1e-06 -2.4e-07 -4.35e-06 2.7e-06 -3.8e-06 8.3e-06
1.55e-06 7.6e-06 9.83e-06 2.44e-06 8.3e-06 5.66e-06 4.05e-06 8e-06
3e-07 5.7e-06 2.74e-06 6.7e-06 0.0 4.23e-06 1.97e-06 -2.6e-06
8.5e-06 -5.54e-06 8.9e-06 1.67e-06 7.9e-06 6.8e-06 9.8e-06 5.5e-06
2.26e-06 -4.23e-06 -5.66e-06 -9.7e-06 -9.4e-06 -4.3e-06 3.04e-06 6.74e-06
1.25e-05 3.2e-06 3.76e-06 -6e-07 1.13e-06 2.6e-06 1.7e-06 1.365e-05
1.9e-06 5.54e-06 -6.74e-06 3.6e-06 -5e-07 2.29e-05 1.15e-05 2.15e-05
-4.2e-06 -5.4e-07 -1e-05 -4.65e-06 5.3e-06 8.64e-06 5.7e-06 4.05e-06
-3.46e-06 1.4e-06 1.4e-06 -1.5e-06 -1.25e-06 1.7e-06 9.5e-06 1.87e-05
8.3e-06 -6.44e-06 -2.54e-05 -1.436e-05 -8e-07 1.92e-05 -2.15e-06 -1e-05
-3.946e-05 -3.64e-06 4e-07 1.48e-05 -1.85e-06 -1.1e-06 2.1e-06 2.3e-06
-1.246e-05 -4.4e-06 7.4e-06 1.21e-05 8.17e-06 -1.83e-05 -3.5e-06 3.2e-06
3.5e-06 -8.5e-06 -1.31e-05 9.7e-06 5.7e-06 1.97e-06 -4e-07 3.5e-06
1.26e-05 -7.15e-06 -2.15e-06 4.95e-06 7.9e-06 2.56e-06 -8.64e-06 1.55e-06
1.09e-05 4e-07 3.386e-05 1.925e-05 5.4e-06 -9.41e-05 -0.0001195 -5.25e-06
2.027e-05 8.5e-06 5.2e-06 2.515e-05 -8.2e-06 -0.00311 -0.00842 0.0002373
7.4e-06 0.02728 0.03998 1.4e-05 -0.02 -0.00788 3.1e-06 4.053e-05
-0.00832 -0.05762 2.41e-05 8.64e-06 0.02281 -3.7e-06 -0.0003576 -0.01208
-2.35e-05 -1.24e-05 1.806e-05 6.85e-06 4.79e-05 4.3e-06 -2.265e-05 1.085e-05
8.05e-06 1.353e-05 -2.056e-05 -0.0487 -0.01201 0.0002072 0.01906 0.1048
0.0002933 -0.0001756 -0.05838 -0.0677 -0.01217 -0.0003073 0.0001415 0.05237
0.0339 -8.86e-05 -0.0004823 -0.04733 -0.015205 0.0001858 0.000114 0.06067
0.0003707 -0.000771 -0.06238 -0.0629 -0.000856 0.000503 0.0341 0.08606
00000000: 1800 6180 9f00 3280 4f00 4100 9700 4b00
00000010: b600 4c00 d300 9900 3400 c200 2200 5500
00000020: 1000 1b80 1200 0b00 0100 1f00 1d80 8b00
00000030: 0780 3a00 2500 1f00 1900 5080 5600 b780
00000040: 4b00 8c80 4900 2f80 0280 6a00 0c00 5500
00000050: 6700 1b00 2a00 1880 4180 0f80 9680 1780
00000060: 9080 2480 1680 1c80 2500 3b00 2900 9200
00000070: 1780 2b00 1080 1f80 2a80 3b80 0f80 1c80
00000080: 3600 1300 7f00 3900 a300 5c00 5900 5c00
00000090: 0900 2f00 1100 0480 4980 2d00 4080 8b00
000000a0: 1a00 8000 a500 2900 8b00 5f00 4400 8600
000000b0: 0500 6000 2e00 7000 0000 4700 2100 2c80
000000c0: 8f00 5d80 9500 1c00 8500 7200 a400 5c00
000000d0: 2600 4780 5f80 a380 9e80 4880 3300 7100
000000e0: d200 3600 3f00 0a80 1300 2c00 1d00 e500
000000f0: 2000 5d00 7180 3c00 0880 8001 c100 6901
00000100: 4680 0980 a880 4e80 5900 9100 6000 4400
00000110: 3a80 1700 1700 1980 1580 1d00 9f00 3a01
00000120: 8b00 6c80 aa81 f180 0d80 4201 2480 a880
00000130: 9682 3d80 0700 f800 1f80 1280 2300 2700
00000140: d180 4a80 7c00 cb00 8900 3381 3b80 3600
00000150: 3b00 8f80 dc80 a300 6000 2100 0780 3b00
00000160: d300 7880 2480 5300 8500 2b00 9180 1a00
00000170: b700 0700 3802 4301 5b00 2b86 d587 5880
00000180: 5401 8f00 5700 a601 8a80 5f9a 50a0 c70b
00000190: 7c00 fc26 1e29 eb00 1fa5 09a0 3400 a802
000001a0: 43a0 60ab 9401 9100 d725 3e80 dc8d 2fa2
000001b0: 8a81 d080 2f01 7300 2403 4800 7c81 b600
000001c0: 8700 e300 5981 3caa 26a2 ca0a e124 b52e
000001d0: ce0c c189 79ab 55ac 3ba2 098d a308 b42a
000001e0: 5728 ce85 e78f 0faa c9a3 170a 7907 c42b
000001f0: 130e 5192 fcab 07ac 0393 1f10 5d28 822d
