scenes/airsas/bunny_20k/example_outputs/deconvolved_measurements/numpy/weights_trans_2520_2879.npy (npy, 437888 bytes, 1 tensors)

array f2 [360, 608]
00000000: 4500 5500 9700 a200 6f00 5000 7e00 5100
00000010: 5000 5000 7500 8800 7400 d700 7400 b500
00000020: ae00 9a00 5d00 6100 5e00 9400 6e00 8f00
00000030: 6c00 9000 7400 b100 7100 7100 9400 7f00
00000040: 8000 6900 8900 b200 9e00 9e00 8700 5300
00000050: 8400 5e00 9b00 3d00 7700 9300 6e00 5500
00000060: 6500 4100 7a00 4400 4900 1600 4b00 9000
00000070: 5800 5900 8700 6800 8f00 7200 7f00 6e00
00000080: 6c00 4f00 5100 8600 7700 8d00 ad00 5600
00000090: 7600 8700 aa00 6c00 6200 8600 ab00 9c00
000000a0: 7300 7700 5400 6500 ac00 3900 5300 7b00
000000b0: 7f00 4e00 2600 4100 9200 4a00 5800 3200
000000c0: 4d00 6800 4200 3400 7400 6500 6600 5500
000000d0: 4800 8100 9c00 8300 bf00 6b00 5100 4500
000000e0: 8e00 4600 4e00 6900 4100 0000 3580 4f00
000000f0: 3f00 9000 3d00 6d00 8200 7400 8000 8b00
00000100: a900 d600 a400 9800 7300 8000 9500 1201
00000110: bb00 c700 b600 7c00 b000 a600 1601 f900
00000120: b800 9800 c300 9b00 d400 2102 9700 9900
00000130: a000 b800 a900 ab00 8f01 ae81 6900 e0ab
00000140: ea9d d280 7423 b72d 8925 490b d589 beb1
00000150: ffaa 3b0e f30f 2b30 f732 780d 0795 809c
00000160: 97ab ba8d c601 7227 9326 da86 f7ac 9a95
00000170: 658e 4610 d093 1485 1929 7928 150e b3ae
00000180: 990d be2b c793 0e94 2ab6 909a ff91 3816
00000190: b02b 4c15 e187 eba7 4b96 3a2e dc2c 0410
000001a0: a78e 28ad f994 5181 e90e 0c2b a40d b280
000001b0: 8a80 7da7 b8ac 7a94 c700 1125 b02a ab01
000001c0: 2a85 97a8 8000 d400 ab02 c900 8905 2f04
000001d0: 2a82 1988 0ca2 a581 9b00 9500 de00 4380
000001e0: a100 930f a001 9480 eb81 8500 2980 6c00
000001f0: 7100 4100 af80 3380 4700 3b00 2f00 c100
4.1e-06 5.07e-06 9e-06 9.66e-06 6.6e-06 4.77e-06 7.5e-06 4.8e-06
4.77e-06 4.77e-06 7e-06 8.1e-06 6.9e-06 1.28e-05 6.9e-06 1.08e-05
1.04e-05 9.2e-06 5.54e-06 5.8e-06 5.6e-06 8.8e-06 6.56e-06 8.5e-06
6.44e-06 8.6e-06 6.9e-06 1.055e-05 6.74e-06 6.74e-06 8.8e-06 7.57e-06
7.6e-06 6.26e-06 8.17e-06 1.06e-05 9.4e-06 9.4e-06 8.05e-06 4.95e-06
7.87e-06 5.6e-06 9.24e-06 3.64e-06 7.1e-06 8.76e-06 6.56e-06 5.07e-06
6e-06 3.9e-06 7.3e-06 4.05e-06 4.35e-06 1.3e-06 4.5e-06 8.6e-06
5.25e-06 5.3e-06 8.05e-06 6.2e-06 8.5e-06 6.8e-06 7.57e-06 6.56e-06
6.44e-06 4.7e-06 4.8e-06 8e-06 7.1e-06 8.4e-06 1.03e-05 5.1e-06
7.03e-06 8.05e-06 1.013e-05 6.44e-06 5.84e-06 8e-06 1.02e-05 9.3e-06
6.85e-06 7.1e-06 5e-06 6e-06 1.025e-05 3.4e-06 4.95e-06 7.33e-06
7.57e-06 4.65e-06 2.26e-06 3.9e-06 8.7e-06 4.4e-06 5.25e-06 3e-06
4.6e-06 6.2e-06 3.93e-06 3.1e-06 6.9e-06 6e-06 6.1e-06 5.07e-06
4.3e-06 7.7e-06 9.3e-06 7.8e-06 1.14e-05 6.4e-06 4.8e-06 4.1e-06
8.46e-06 4.2e-06 4.65e-06 6.26e-06 3.9e-06 0.0 -3.16e-06 4.7e-06
3.76e-06 8.6e-06 3.64e-06 6.5e-06 7.75e-06 6.9e-06 7.6e-06 8.3e-06
1.01e-05 1.276e-05 9.8e-06 9.06e-06 6.85e-06 7.6e-06 8.9e-06 1.633e-05
1.115e-05 1.186e-05 1.085e-05 7.4e-06 1.05e-05 9.9e-06 1.657e-05 1.484e-05
1.097e-05 9.06e-06 1.16e-05 9.24e-06 1.264e-05 3.25e-05 9e-06 9.1e-06
9.54e-06 1.097e-05 1.01e-05 1.02e-05 2.38e-05 -2.563e-05 6.26e-06 -0.06152
-0.005775 -1.25e-05 0.01456 0.0893 0.02162 0.0002223 -0.000178 -0.1794
-0.05466 0.0003803 0.0004852 0.1302 0.2177 0.0003338 -0.001227 -0.004395
-0.0593 -0.0003495 2.706e-05 0.02908 0.02568 -0.00010455 -0.0776 -0.001368
-0.0003903 0.0005217 -0.0009537 -7.75e-05 0.03983 0.03494 0.0003712 -0.1047
0.0003417 0.0605 -0.0009494 -0.00099 -0.3853 -0.003204 -0.000732 0.001518
0.06006 0.001293 -0.0001202 -0.03093 -0.001536 0.0973 0.0759 0.00049
-0.000406 -0.08057 -0.001214 -2.01e-05 0.0004218 0.05505 0.0003443 -1.06e-05
-8.2e-06 -0.02925 -0.0737 -0.001093 1.186e-05 0.01979 0.05225 2.545e-05
-7.88e-05 -0.03586 7.6e-06 1.264e-05 4.07e-05 1.2e-05 8.446e-05 6.384e-05
-3.3e-05 -0.000125 -0.01181 -2.51e-05 9.24e-06 8.9e-06 1.323e-05 -4e-06
9.6e-06 0.0004623 2.48e-05 -8.8e-06 -2.927e-05 7.9e-06 -2.44e-06 6.44e-06
6.74e-06 3.9e-06 -1.043e-05 -3.04e-06 4.23e-06 3.5e-06 2.8e-06 1.15e-05
