scenes/airsas/bunny_20k/example_outputs/deconvolved_measurements/numpy/weights_trans_28080_28439.npy (npy, 437888 bytes, 1 tensors)

array f2 [360, 608]
-7.7e-06 1.47e-05 9.66e-06 1.323e-05 7.4e-06 8.46e-06 1.013e-05 1.13e-05
1.574e-05 1.6e-05 1.54e-05 2.12e-05 8.05e-06 2.164e-05 8.9e-06 1.74e-05
3.4e-06 9.4e-06 1.13e-06 3e-06 -1.55e-06 -1.7e-06 2.4e-07 -4.3e-06
3.64e-06 -3.5e-06 5.96e-06 -1.4e-06 3.5e-06 6e-08 2.6e-06 1.67e-06
4.35e-06 9.5e-07 6.6e-06 0.0 5.54e-06 -2.4e-07 -1e-06 1.43e-06
-5.36e-06 4.5e-06 -4.95e-06 -4.2e-06 -8.3e-07 -5.1e-06 6e-07 -3.3e-06
-1.25e-06 -5.4e-07 -3.34e-06 1.13e-06 -6.2e-06 -1.85e-06 -8e-07 -4.4e-06
1.3e-06 -4.53e-06 -2e-07 -1.7e-06 1e-07 -1.2e-06 1.3e-06 -1.7e-06
-2.44e-06 -3e-06 -2.4e-07 -4.1e-06 -6e-08 -4.1e-06 -9e-07 -6e-08
-1e-06 3.6e-07 -1.97e-06 -2.8e-06 -1e-06 -5.1e-06 -7e-07 -2.4e-06
2e-07 -2.1e-06 2e-06 -3.46e-06 -1.25e-06 -9e-07 -3.4e-06 3e-07
-4.1e-06 1.97e-06 -3.7e-06 2.2e-06 -3.5e-06 1.43e-06 -1.25e-06 -1.6e-06
4.1e-06 -3.2e-06 6.8e-06 -1.85e-06 4.4e-06 -7e-07 1.8e-06 -2.6e-06
2.7e-06 -3.8e-06 8e-07 -5.7e-06 3e-07 1e-07 -4e-07 1.5e-06
6e-07 -1e-06 3e-06 -3.04e-06 1.9e-06 -2.4e-06 6e-08 -2.7e-06
6.6e-07 -2.74e-06 1.3e-06 -8.46e-06 -9e-07 -3.7e-06 -3.1e-06 3.64e-06
1.2e-06 7.5e-06 2.6e-06 4.8e-06 -4.6e-06 2e-07 -6.7e-06 1.4e-06
2.74e-06 1.1e-06 2.56e-06 -2.4e-07 -6e-08 3.7e-06 -2.3e-06 8.46e-06
-3e-06 8.1e-06 -1.25e-06 1.7e-06 -8.05e-06 -2.1e-06 -5e-06 7.3e-06
-4.05e-06 1.85e-06 -4.3e-06 3.34e-06 8.2e-06 8e-06 -1.9e-06 2.56e-06
-8.1e-06 2.44e-06 -5.66e-06 -7.3e-06 2e-07 -3.2e-06 2.2e-06 8.3e-07
-2.2e-06 -1.43e-06 -1.69e-05 -9.36e-06 -1.05e-05 -6.4e-06 -9.3e-06 -3.8e-06
-1.51e-05 -2.176e-05 -2.223e-05 -2.74e-06 1.574e-05 8e-06 -4.65e-06 -1.83e-05
3.2e-06 1.854e-05 0.0 -2.855e-05 -1.895e-05 -3.7e-06 1.99e-05 -8e-06
1.633e-05 3.4e-06 -1.13e-05 -9.9e-05 -0.0001343 -8.39e-05 2.1e-06 2.58e-05
-7.9e-06 -1.32e-05 -8.3e-07 1.395e-05 4e-07 -2.9e-06 9.5e-07 -2.897e-05
-1.97e-05 2.9e-06 -7.03e-06 -2.086e-05 -0.0001706 1.07e-05 1.75e-05 -2e-07
-2.53e-05 -6.56e-06 9.36e-06 -0.0001037 -0.037 -0.01605 -0.0001252 -8.243e-05
0.0459 0.0011425 0.0004408 -0.0001699 -0.0247 -5.34e-05 -9.5e-06 5.96e-06
9.716e-05 6.8e-06 -2.69e-05 1.675e-05 2.8e-06 1.29e-05 4.04e-05 3e-07
-3.45e-05 -7.33e-05 -0.0453 -0.02673 -0.0006046 0.002058 0.1175 0.0301
0.00057 -0.003319 -0.11383 -0.01367 -0.04648 -0.0002859 0.0005007 0.03214
00000000: 8180 f700 a200 de00 7c00 8e00 aa00 be00
00000010: 0801 0c01 0201 6401 8700 6b01 9500 2401
00000020: 3900 9e00 1300 3200 1a80 1d80 0400 4880
00000030: 3d00 3b80 6400 1780 3b00 0100 2c00 1c00
00000040: 4900 1000 6f00 0000 5d00 0480 1180 1800
00000050: 5a80 4b00 5380 4680 0e80 5680 0a00 3780
00000060: 1580 0980 3880 1300 6880 1f80 0d80 4a80
00000070: 1600 4c80 0380 1d80 0200 1480 1600 1d80
00000080: 2980 3280 0480 4580 0180 4580 0f80 0180
00000090: 1180 0600 2180 2f80 1180 5680 0c80 2880
000000a0: 0300 2380 2200 3a80 1580 0f80 3980 0500
000000b0: 4580 2100 3e80 2500 3b80 1800 1580 1b80
000000c0: 4500 3680 7200 1f80 4a00 0c80 1e00 2c80
000000d0: 2d00 4080 0d00 6080 0500 0200 0780 1900
000000e0: 0a00 1180 3200 3380 2000 2880 0100 2d80
000000f0: 0b00 2e80 1600 8e80 0f80 3e80 3480 3d00
00000100: 1400 7e00 2c00 5100 4d80 0300 7080 1700
00000110: 2e00 1200 2b00 0480 0180 3e00 2780 8e00
00000120: 3280 8800 1580 1d00 8780 2380 5480 7a00
00000130: 4480 1f00 4880 3800 8a00 8600 2080 2b00
00000140: 8880 2900 5f80 7a80 0300 3680 2500 0e00
00000150: 2580 1880 1c81 9d80 b080 6b80 9c80 4080
00000160: fd80 6d81 7581 2e80 0801 8600 4e80 3381
00000170: 3600 3701 0000 df81 3e81 3e80 4e01 8680
00000180: 1201 3900 be80 7d86 6788 8085 2300 b101
00000190: 8580 dd80 0e80 ea00 0700 3180 1000 e681
000001a0: 4b81 3100 7680 5e81 9789 b400 2601 0380
000001b0: a881 6e80 9d00 cc86 bca8 1ca4 1a88 6785
000001c0: e029 ae14 390f 9189 53a6 8083 9f80 6400
000001d0: 5e06 7200 c381 1901 2f00 d800 a602 0500
000001e0: 4382 ce84 cca9 d8a6 f490 3718 852f b527
000001f0: ab10 cc9a 49af 00a3 f3a9 af8c 1a10 1d28
