scenes/airsas/bunny_20k/example_outputs/deconvolved_measurements/numpy/weights_trans_39960_40319.npy (npy, 437888 bytes, 1 tensors)

array f2 [360, 608]
0	0x0092	8.7e-06
1	0x00b6	1.085e-05
2	0x8010	-9.5e-07
3	0x007b	7.33e-06
4	0x00a5	9.83e-06
5	0x004b	4.5e-06
6	0x0056	5.1e-06
7	0x00ce	1.23e-05
8	0x00b4	1.07e-05
9	0x00dd	1.32e-05
10	0x0059	5.3e-06
11	0x018a	2.35e-05
12	0x004a	4.4e-06
13	0x0097	9e-06
14	0x0120	1.717e-05
15	0x006a	6.3e-06
16	0x8068	-6.2e-06
17	0x0141	1.913e-05
18	0x006b	6.4e-06
19	0x00a9	1.01e-05
20	0x8088	-8.1e-06
21	0x0249	3.487e-05
22	0x0012	1.1e-06
23	0x0067	6.14e-06
24	0x010e	1.61e-05
25	0x004d	4.6e-06
26	0x0103	1.544e-05
27	0x801f	-1.85e-06
28	0x006e	6.56e-06
29	0x0026	2.26e-06
30	0x00d9	1.293e-05
31	0x8005	-3e-07
32	0x009a	9.2e-06
33	0x0016	1.3e-06
34	0x00c5	1.174e-05
35	0x0057	5.2e-06
36	0x004d	4.6e-06
37	0x00ac	1.025e-05
38	0x0074	6.9e-06
39	0x001c	1.67e-06
40	0x010f	1.615e-05
41	0x0024	2.15e-06
42	0x0053	4.95e-06
43	0x00e8	1.38e-05
44	0x0037	3.3e-06
45	0x0050	4.77e-06
46	0x00af	1.043e-05
47	0x0063	5.9e-06
48	0x0054	5e-06
49	0x00e9	1.39e-05
50	0x001f	1.85e-06
51	0x007a	7.3e-06
52	0x003e	3.7e-06
53	0x0036	3.2e-06
54	0x009f	9.5e-06
55	0x000b	6.6e-07
56	0x00b4	1.07e-05
57	0x0029	2.44e-06
58	0x00bd	1.127e-05
59	0x0032	3e-06
60	0x0015	1.25e-06
61	0x0086	8e-06
62	0x0010	9.5e-07
63	0x0091	8.64e-06
64	0x0028	2.4e-06
65	0x009d	9.36e-06
66	0x0063	5.9e-06
67	0x004a	4.4e-06
68	0x008d	8.4e-06
69	0x0010	9.5e-07
70	0x00ae	1.04e-05
71	0x0060	5.7e-06
72	0x0013	1.13e-06
73	0x00a1	9.6e-06
74	0x803c	-3.6e-06
75	0x0097	9e-06
76	0x001b	1.6e-06
77	0x0055	5.07e-06
78	0x009d	9.36e-06
79	0x0054	5e-06
80	0x00b8	1.097e-05
81	0x0071	6.74e-06
82	0x007a	7.3e-06
83	0x00ad	1.03e-05
84	0x002d	2.7e-06
85	0x00bd	1.127e-05
86	0x800c	-7e-07
87	0x007e	7.5e-06
88	0x0078	7.15e-06
89	0x8022	-2e-06
90	0x001c	1.67e-06
91	0x000a	6e-07
92	0x802e	-2.74e-06
93	0x006d	6.5e-06
94	0x8025	-2.2e-06
95	0x0055	5.07e-06
96	0x0041	3.9e-06
97	0x801c	-1.67e-06
98	0x0089	8.17e-06
99	0x0006	3.6e-07
100	0x001b	1.6e-06
101	0x0017	1.4e-06
102	0x0048	4.3e-06
103	0x0051	4.8e-06
104	0x0051	4.8e-06
105	0x001b	1.6e-06
106	0x008d	8.4e-06
107	0x006c	6.44e-06
108	0x0021	1.97e-06
109	0x00bf	1.14e-05
110	0x8001	-6e-08
111	0x00be	1.13e-05
112	0x0042	3.93e-06
113	0x0078	7.15e-06
114	0x0073	6.85e-06
115	0x00a0	9.54e-06
116	0x0046	4.2e-06
117	0x0095	8.9e-06
118	0x0093	8.76e-06
119	0x001f	1.85e-06
120	0x0074	6.9e-06
121	0x005e	5.6e-06
122	0x0030	2.86e-06
123	0x0053	4.95e-06
124	0x006e	6.56e-06
125	0x002f	2.8e-06
126	0x0067	6.14e-06
127	0x0062	5.84e-06
128	0x0049	4.35e-06
129	0x0014	1.2e-06
130	0x00f2	1.44e-05
131	0x801f	-1.85e-06
132	0x00ac	1.025e-05
133	0x8038	-3.34e-06
134	0x0089	8.17e-06
135	0x8054	-5e-06
136	0x005f	5.66e-06
137	0x0029	2.44e-06
138	0x802b	-2.56e-06
139	0x0073	6.85e-06
140	0x8011	-1e-06
141	0x0066	6.1e-06
142	0x0078	7.15e-06
143	0x8015	-1.25e-06
144	0x001b	1.6e-06
145	0x0034	3.1e-06
146	0x80a9	-1.01e-05
147	0x0068	6.2e-06
148	0x80fc	-1.5e-05
149	0x004b	4.5e-06
150	0x80e4	-1.36e-05
151	0x0055	5.07e-06
152	0x801b	-1.6e-06
153	0x8051	-4.8e-06
154	0x002b	2.56e-06
155	0x8009	-5.4e-07
156	0x0074	6.9e-06
157	0x801c	-1.67e-06
158	0x00b0	1.05e-05
159	0x0035	3.16e-06
160	0x0064	5.96e-06
161	0x8005	-3e-07
162	0x8040	-3.8e-06
163	0x803b	-3.5e-06
164	0x80b5	-1.08e-05
165	0x80bc	-1.12e-05
166	0x80ee	-1.42e-05
167	0x8012	-1.1e-06
168	0x811c	-1.69e-05
169	0x0031	2.9e-06
170	0x0028	2.4e-06
171	0x008e	8.46e-06
172	0x0177	2.235e-05
173	0x0036	3.2e-06
174	0x0078	7.15e-06
175	0x8089	-8.17e-06
176	0x8095	-8.9e-06
177	0x802c	-2.6e-06
178	0x802d	-2.7e-06
179	0x0088	8.1e-06
180	0x0072	6.8e-06
181	0x00ad	1.03e-05
182	0x8030	-2.86e-06
183	0x003f	3.76e-06
184	0x8191	-2.39e-05
185	0x0047	4.23e-06
186	0x8053	-4.95e-06
187	0x018c	2.36e-05
188	0x00bb	1.115e-05
189	0x006b	6.4e-06
190	0x8111	-1.63e-05
191	0x80ef	-1.425e-05
192	0x8112	-1.633e-05
193	0x8007	-4e-07
194	0x00cf	1.234e-05
195	0x00db	1.305e-05
196	0x002e	2.74e-06
197	0x80e6	-1.37e-05
198	0x8110	-1.62e-05
199	0x0004	2.4e-07
200	0x0179	2.25e-05
201	0x00b8	1.097e-05
202	0x0014	1.2e-06
203	0x819e	-2.47e-05
204	0x8022	-2e-06
205	0x006c	6.44e-06
206	0x0213	3.165e-05
207	0x0181	2.295e-05
208	0x8004	-2.4e-07
209	0x825d	-3.606e-05
210	0x833a	-4.923e-05
211	0x832e	-4.85e-05
212	0x8142	-1.92e-05
213	0x01ce	2.754e-05
214	0x02f0	4.48e-05
215	0x039c	5.51e-05
216	0x00f9	1.484e-05
217	0x8095	-8.9e-06
218	0x81c5	-2.7e-05
219	0x812f	-1.806e-05
220	0x802c	-2.6e-06
221	0x0073	6.85e-06
222	0x00c7	1.186e-05
223	0x0175	2.223e-05
224	0x0348	5.007e-05
225	0x030a	4.64e-05
226	0x0005	3e-07
227	0x8138	-1.86e-05
228	0x001a	1.55e-06
229	0x053f	8.005e-05
230	0x0364	5.174e-05
231	0x0059	5.3e-06
232	0x86be	-0.0001029
233	0x8322	-4.78e-05
234	0x8094	-8.8e-06
235	0x0313	4.69e-05
236	0x01e5	2.89e-05
237	0x001a	1.55e-06
238	0x814b	-1.97e-05
239	0x825f	-3.62e-05
240	0x822c	-3.314e-05
241	0x0038	3.34e-06
242	0x04b1	7.16e-05
243	0x00fa	1.49e-05
244	0x80b1	-1.055e-05
245	0x883d	-0.0001293
246	0x80e3	-1.353e-05
247	0x000a	6e-07
248	0x0447	6.527e-05
249	0x8085	-7.9e-06
250	0x80dd	-1.32e-05
251	0x81ed	-2.94e-05
252	0x801d	-1.7e-06
253	0x0149	1.96e-05
254	0x00b8	1.097e-05
255	0x861b	-9.316e-05
